libdc1394 error: Failed to initialize libdc1394
WARNING: Logging before InitGoogleLogging() is written to STDERR
I0714 14:17:11.010993  3045 net.cpp:42] Initializing net from parameters: 
name: "GoogleNet"
input: "data"
input_dim: 10
input_dim: 3
input_dim: 224
input_dim: 224
force_backward: true
state {
  phase: TEST
}
layer {
  name: "conv1/7x7_s2"
  type: "Convolution"
  bottom: "data"
  top: "conv1/7x7_s2"
  param {
    lr_mult: 1
    decay_mult: 1
  }
  param {
    lr_mult: 2
    decay_mult: 0
  }
  convolution_param {
    num_output: 64
    pad: 3
    kernel_size: 7
    stride: 2
    weight_filler {
      type: "xavier"
      std: 0.1
    }
    bias_filler {
      type: "constant"
      value: 0.2
    }
  }
}
layer {
  name: "conv1/relu_7x7"
  type: "ReLU"
  bottom: "conv1/7x7_s2"
  top: "conv1/7x7_s2"
}
layer {
  name: "pool1/3x3_s2"
  type: "Pooling"
  bottom: "conv1/7x7_s2"
  top: "pool1/3x3_s2"
  pooling_param {
    pool: MAX
    kernel_size: 3
    stride: 2
  }
}
layer {
  name: "pool1/norm1"
  type: "LRN"
  bottom: "pool1/3x3_s2"
  top: "pool1/norm1"
  lrn_param {
    local_size: 5
    alpha: 0.0001
    beta: 0.75
  }
}
layer {
  name: "conv2/3x3_reduce"
  type: "Convolution"
  bottom: "pool1/norm1"
  top: "conv2/3x3_reduce"
  param {
    lr_mult: 1
    decay_mult: 1
  }
  param {
    lr_mult: 2
    decay_mult: 0
  }
  convolution_param {
    num_output: 64
    kernel_size: 1
    weight_filler {
      type: "xavier"
      std: 0.1
    }
    bias_filler {
      type: "constant"
      value: 0.2
    }
  }
}
layer {
  name: "conv2/relu_3x3_reduce"
  type: "ReLU"
  bottom: "conv2/3x3_reduce"
  top: "conv2/3x3_reduce"
}
layer {
  name: "conv2/3x3"
  type: "Convolution"
  bottom: "conv2/3x3_reduce"
  top: "conv2/3x3"
  param {
    lr_mult: 1
    decay_mult: 1
  }
  param {
    lr_mult: 2
    decay_mult: 0
  }
  convolution_param {
    num_output: 192
    pad: 1
    kernel_size: 3
    weight_filler {
      type: "xavier"
      std: 0.03
    }
    bias_filler {
      type: "constant"
      value: 0.2
    }
  }
}
layer {
  name: "conv2/relu_3x3"
  type: "ReLU"
  bottom: "conv2/3x3"
  top: "conv2/3x3"
}
layer {
  name: "conv2/norm2"
  type: "LRN"
  bottom: "conv2/3x3"
  top: "conv2/norm2"
  lrn_param {
    local_size: 5
    alpha: 0.0001
    beta: 0.75
  }
}
layer {
  name: "pool2/3x3_s2"
  type: "Pooling"
  bottom: "conv2/norm2"
  top: "pool2/3x3_s2"
  pooling_param {
    pool: MAX
    kernel_size: 3
    stride: 2
  }
}
layer {
  name: "inception_3a/1x1"
  type: "Convolution"
  bottom: "pool2/3x3_s2"
  top: "inception_3a/1x1"
  param {
    lr_mult: 1
    decay_mult: 1
  }
  param {
    lr_mult: 2
    decay_mult: 0
  }
  convolution_param {
    num_output: 64
    kernel_size: 1
    weight_filler {
      type: "xavier"
      std: 0.03
    }
    bias_filler {
      type: "constant"
      value: 0.2
    }
  }
}
layer {
  name: "inception_3a/relu_1x1"
  type: "ReLU"
  bottom: "inception_3a/1x1"
  top: "inception_3a/1x1"
}
layer {
  name: "inception_3a/3x3_reduce"
  type: "Convolution"
  bottom: "pool2/3x3_s2"
  top: "inception_3a/3x3_reduce"
  param {
    lr_mult: 1
    decay_mult: 1
  }
  param {
    lr_mult: 2
    decay_mult: 0
  }
  convolution_param {
    num_output: 96
    kernel_size: 1
    weight_filler {
      type: "xavier"
      std: 0.09
    }
    bias_filler {
      type: "constant"
      value: 0.2
    }
  }
}
layer {
  name: "inception_3a/relu_3x3_reduce"
  type: "ReLU"
  bottom: "inception_3a/3x3_reduce"
  top: "inception_3a/3x3_reduce"
}
layer {
  name: "inception_3a/3x3"
  type: "Convolution"
  bottom: "inception_3a/3x3_reduce"
  top: "inception_3a/3x3"
  param {
    lr_mult: 1
    decay_mult: 1
  }
  param {
    lr_mult: 2
    decay_mult: 0
  }
  convolution_param {
    num_output: 128
    pad: 1
    kernel_size: 3
    weight_filler {
      type: "xavier"
      std: 0.03
    }
    bias_filler {
      type: "constant"
      value: 0.2
    }
  }
}
layer {
  name: "inception_3a/relu_3x3"
  type: "ReLU"
  bottom: "inception_3a/3x3"
  top: "inception_3a/3x3"
}
layer {
  name: "inception_3a/5x5_reduce"
  type: "Convolution"
  bottom: "pool2/3x3_s2"
  top: "inception_3a/5x5_reduce"
  param {
    lr_mult: 1
    decay_mult: 1
  }
  param {
    lr_mult: 2
    decay_mult: 0
  }
  convolution_param {
    num_output: 16
    kernel_size: 1
    weight_filler {
      type: "xavier"
      std: 0.2
    }
    bias_filler {
      type: "constant"
      value: 0.2
    }
  }
}
layer {
  name: "inception_3a/relu_5x5_reduce"
  type: "ReLU"
  bottom: "inception_3a/5x5_reduce"
  top: "inception_3a/5x5_reduce"
}
layer {
  name: "inception_3a/5x5"
  type: "Convolution"
  bottom: "inception_3a/5x5_reduce"
  top: "inception_3a/5x5"
  param {
    lr_mult: 1
    decay_mult: 1
  }
  param {
    lr_mult: 2
    decay_mult: 0
  }
  convolution_param {
    num_output: 32
    pad: 2
    kernel_size: 5
    weight_filler {
      type: "xavier"
      std: 0.03
    }
    bias_filler {
      type: "constant"
      value: 0.2
    }
  }
}
layer {
  name: "inception_3a/relu_5x5"
  type: "ReLU"
  bottom: "inception_3a/5x5"
  top: "inception_3a/5x5"
}
layer {
  name: "inception_3a/pool"
  type: "Pooling"
  bottom: "pool2/3x3_s2"
  top: "inception_3a/pool"
  pooling_param {
    pool: MAX
    kernel_size: 3
    stride: 1
    pad: 1
  }
}
layer {
  name: "inception_3a/pool_proj"
  type: "Convolution"
  bottom: "inception_3a/pool"
  top: "inception_3a/pool_proj"
  param {
    lr_mult: 1
    decay_mult: 1
  }
  param {
    lr_mult: 2
    decay_mult: 0
  }
  convolution_param {
    num_output: 32
    kernel_size: 1
    weight_filler {
      type: "xavier"
      std: 0.1
    }
    bias_filler {
      type: "constant"
      value: 0.2
    }
  }
}
layer {
  name: "inception_3a/relu_pool_proj"
  type: "ReLU"
  bottom: "inception_3a/pool_proj"
  top: "inception_3a/pool_proj"
}
layer {
  name: "inception_3a/output"
  type: "Concat"
  bottom: "inception_3a/1x1"
  bottom: "inception_3a/3x3"
  bottom: "inception_3a/5x5"
  bottom: "inception_3a/pool_proj"
  top: "inception_3a/output"
}
layer {
  name: "inception_3b/1x1"
  type: "Convolution"
  bottom: "inception_3a/output"
  top: "inception_3b/1x1"
  param {
    lr_mult: 1
    decay_mult: 1
  }
  param {
    lr_mult: 2
    decay_mult: 0
  }
  convolution_param {
    num_output: 128
    kernel_size: 1
    weight_filler {
      type: "xavier"
      std: 0.03
    }
    bias_filler {
      type: "constant"
      value: 0.2
    }
  }
}
layer {
  name: "inception_3b/relu_1x1"
  type: "ReLU"
  bottom: "inception_3b/1x1"
  top: "inception_3b/1x1"
}
layer {
  name: "inception_3b/3x3_reduce"
  type: "Convolution"
  bottom: "inception_3a/output"
  top: "inception_3b/3x3_reduce"
  param {
    lr_mult: 1
    decay_mult: 1
  }
  param {
    lr_mult: 2
    decay_mult: 0
  }
  convolution_param {
    num_output: 128
    kernel_size: 1
    weight_filler {
      type: "xavier"
      std: 0.09
    }
    bias_filler {
      type: "constant"
      value: 0.2
    }
  }
}
layer {
  name: "inception_3b/relu_3x3_reduce"
  type: "ReLU"
  bottom: "inception_3b/3x3_reduce"
  top: "inception_3b/3x3_reduce"
}
layer {
  name: "inception_3b/3x3"
  type: "Convolution"
  bottom: "inception_3b/3x3_reduce"
  top: "inception_3b/3x3"
  param {
    lr_mult: 1
    decay_mult: 1
  }
  param {
    lr_mult: 2
    decay_mult: 0
  }
  convolution_param {
    num_output: 192
    pad: 1
    kernel_size: 3
    weight_filler {
      type: "xavier"
      std: 0.03
    }
    bias_filler {
      type: "constant"
      value: 0.2
    }
  }
}
layer {
  name: "inception_3b/relu_3x3"
  type: "ReLU"
  bottom: "inception_3b/3x3"
  top: "inception_3b/3x3"
}
layer {
  name: "inception_3b/5x5_reduce"
  type: "Convolution"
  bottom: "inception_3a/output"
  top: "inception_3b/5x5_reduce"
  param {
    lr_mult: 1
    decay_mult: 1
  }
  param {
    lr_mult: 2
    decay_mult: 0
  }
  convolution_param {
    num_output: 32
    kernel_size: 1
    weight_filler {
      type: "xavier"
      std: 0.2
    }
    bias_filler {
      type: "constant"
      value: 0.2
    }
  }
}
layer {
  name: "inception_3b/relu_5x5_reduce"
  type: "ReLU"
  bottom: "inception_3b/5x5_reduce"
  top: "inception_3b/5x5_reduce"
}
layer {
  name: "inception_3b/5x5"
  type: "Convolution"
  bottom: "inception_3b/5x5_reduce"
  top: "inception_3b/5x5"
  param {
    lr_mult: 1
    decay_mult: 1
  }
  param {
    lr_mult: 2
    decay_mult: 0
  }
  convolution_param {
    num_output: 96
    pad: 2
    kernel_size: 5
    weight_filler {
      type: "xavier"
      std: 0.03
    }
    bias_filler {
      type: "constant"
      value: 0.2
    }
  }
}
layer {
  name: "inception_3b/relu_5x5"
  type: "ReLU"
  bottom: "inception_3b/5x5"
  top: "inception_3b/5x5"
}
layer {
  name: "inception_3b/pool"
  type: "Pooling"
  bottom: "inception_3a/output"
  top: "inception_3b/pool"
  pooling_param {
    pool: MAX
    kernel_size: 3
    stride: 1
    pad: 1
  }
}
layer {
  name: "inception_3b/pool_proj"
  type: "Convolution"
  bottom: "inception_3b/pool"
  top: "inception_3b/pool_proj"
  param {
    lr_mult: 1
    decay_mult: 1
  }
  param {
    lr_mult: 2
    decay_mult: 0
  }
  convolution_param {
    num_output: 64
    kernel_size: 1
    weight_filler {
      type: "xavier"
      std: 0.1
    }
    bias_filler {
      type: "constant"
      value: 0.2
    }
  }
}
layer {
  name: "inception_3b/relu_pool_proj"
  type: "ReLU"
  bottom: "inception_3b/pool_proj"
  top: "inception_3b/pool_proj"
}
layer {
  name: "inception_3b/output"
  type: "Concat"
  bottom: "inception_3b/1x1"
  bottom: "inception_3b/3x3"
  bottom: "inception_3b/5x5"
  bottom: "inception_3b/pool_proj"
  top: "inception_3b/output"
}
layer {
  name: "pool3/3x3_s2"
  type: "Pooling"
  bottom: "inception_3b/output"
  top: "pool3/3x3_s2"
  pooling_param {
    pool: MAX
    kernel_size: 3
    stride: 2
  }
}
layer {
  name: "inception_4a/1x1"
  type: "Convolution"
  bottom: "pool3/3x3_s2"
  top: "inception_4a/1x1"
  param {
    lr_mult: 1
    decay_mult: 1
  }
  param {
    lr_mult: 2
    decay_mult: 0
  }
  convolution_param {
    num_output: 192
    kernel_size: 1
    weight_filler {
      type: "xavier"
      std: 0.03
    }
    bias_filler {
      type: "constant"
      value: 0.2
    }
  }
}
layer {
  name: "inception_4a/relu_1x1"
  type: "ReLU"
  bottom: "inception_4a/1x1"
  top: "inception_4a/1x1"
}
layer {
  name: "inception_4a/3x3_reduce"
  type: "Convolution"
  bottom: "pool3/3x3_s2"
  top: "inception_4a/3x3_reduce"
  param {
    lr_mult: 1
    decay_mult: 1
  }
  param {
    lr_mult: 2
    decay_mult: 0
  }
  convolution_param {
    num_output: 96
    kernel_size: 1
    weight_filler {
      type: "xavier"
      std: 0.09
    }
    bias_filler {
      type: "constant"
      value: 0.2
    }
  }
}
layer {
  name: "inception_4a/relu_3x3_reduce"
  type: "ReLU"
  bottom: "inception_4a/3x3_reduce"
  top: "inception_4a/3x3_reduce"
}
layer {
  name: "inception_4a/3x3"
  type: "Convolution"
  bottom: "inception_4a/3x3_reduce"
  top: "inception_4a/3x3"
  param {
    lr_mult: 1
    decay_mult: 1
  }
  param {
    lr_mult: 2
    decay_mult: 0
  }
  convolution_param {
    num_output: 208
    pad: 1
    kernel_size: 3
    weight_filler {
      type: "xavier"
      std: 0.03
    }
    bias_filler {
      type: "constant"
      value: 0.2
    }
  }
}
layer {
  name: "inception_4a/relu_3x3"
  type: "ReLU"
  bottom: "inception_4a/3x3"
  top: "inception_4a/3x3"
}
layer {
  name: "inception_4a/5x5_reduce"
  type: "Convolution"
  bottom: "pool3/3x3_s2"
  top: "inception_4a/5x5_reduce"
  param {
    lr_mult: 1
    decay_mult: 1
  }
  param {
    lr_mult: 2
    decay_mult: 0
  }
  convolution_param {
    num_output: 16
    kernel_size: 1
    weight_filler {
      type: "xavier"
      std: 0.2
    }
    bias_filler {
      type: "constant"
      value: 0.2
    }
  }
}
layer {
  name: "inception_4a/relu_5x5_reduce"
  type: "ReLU"
  bottom: "inception_4a/5x5_reduce"
  top: "inception_4a/5x5_reduce"
}
layer {
  name: "inception_4a/5x5"
  type: "Convolution"
  bottom: "inception_4a/5x5_reduce"
  top: "inception_4a/5x5"
  param {
    lr_mult: 1
    decay_mult: 1
  }
  param {
    lr_mult: 2
    decay_mult: 0
  }
  convolution_param {
    num_output: 48
    pad: 2
    kernel_size: 5
    weight_filler {
      type: "xavier"
      std: 0.03
    }
    bias_filler {
      type: "constant"
      value: 0.2
    }
  }
}
layer {
  name: "inception_4a/relu_5x5"
  type: "ReLU"
  bottom: "inception_4a/5x5"
  top: "inception_4a/5x5"
}
layer {
  name: "inception_4a/pool"
  type: "Pooling"
  bottom: "pool3/3x3_s2"
  top: "inception_4a/pool"
  pooling_param {
    pool: MAX
    kernel_size: 3
    stride: 1
    pad: 1
  }
}
layer {
  name: "inception_4a/pool_proj"
  type: "Convolution"
  bottom: "inception_4a/pool"
  top: "inception_4a/pool_proj"
  param {
    lr_mult: 1
    decay_mult: 1
  }
  param {
    lr_mult: 2
    decay_mult: 0
  }
  convolution_param {
    num_output: 64
    kernel_size: 1
    weight_filler {
      type: "xavier"
      std: 0.1
    }
    bias_filler {
      type: "constant"
      value: 0.2
    }
  }
}
layer {
  name: "inception_4a/relu_pool_proj"
  type: "ReLU"
  bottom: "inception_4a/pool_proj"
  top: "inception_4a/pool_proj"
}
layer {
  name: "inception_4a/output"
  type: "Concat"
  bottom: "inception_4a/1x1"
  bottom: "inception_4a/3x3"
  bottom: "inception_4a/5x5"
  bottom: "inception_4a/pool_proj"
  top: "inception_4a/output"
}
layer {
  name: "inception_4b/1x1"
  type: "Convolution"
  bottom: "inception_4a/output"
  top: "inception_4b/1x1"
  param {
    lr_mult: 1
    decay_mult: 1
  }
  param {
    lr_mult: 2
    decay_mult: 0
  }
  convolution_param {
    num_output: 160
    kernel_size: 1
    weight_filler {
      type: "xavier"
      std: 0.03
    }
    bias_filler {
      type: "constant"
      value: 0.2
    }
  }
}
layer {
  name: "inception_4b/relu_1x1"
  type: "ReLU"
  bottom: "inception_4b/1x1"
  top: "inception_4b/1x1"
}
layer {
  name: "inception_4b/3x3_reduce"
  type: "Convolution"
  bottom: "inception_4a/output"
  top: "inception_4b/3x3_reduce"
  param {
    lr_mult: 1
    decay_mult: 1
  }
  param {
    lr_mult: 2
    decay_mult: 0
  }
  convolution_param {
    num_output: 112
    kernel_size: 1
    weight_filler {
      type: "xavier"
      std: 0.09
    }
    bias_filler {
      type: "constant"
      value: 0.2
    }
  }
}
layer {
  name: "inception_4b/relu_3x3_reduce"
  type: "ReLU"
  bottom: "inception_4b/3x3_reduce"
  top: "inception_4b/3x3_reduce"
}
layer {
  name: "inception_4b/3x3"
  type: "Convolution"
  bottom: "inception_4b/3x3_reduce"
  top: "inception_4b/3x3"
  param {
    lr_mult: 1
    decay_mult: 1
  }
  param {
    lr_mult: 2
    decay_mult: 0
  }
  convolution_param {
    num_output: 224
    pad: 1
    kernel_size: 3
    weight_filler {
      type: "xavier"
      std: 0.03
    }
    bias_filler {
      type: "constant"
      value: 0.2
    }
  }
}
layer {
  name: "inception_4b/relu_3x3"
  type: "ReLU"
  bottom: "inception_4b/3x3"
  top: "inception_4b/3x3"
}
layer {
  name: "inception_4b/5x5_reduce"
  type: "Convolution"
  bottom: "inception_4a/output"
  top: "inception_4b/5x5_reduce"
  param {
    lr_mult: 1
    decay_mult: 1
  }
  param {
    lr_mult: 2
    decay_mult: 0
  }
  convolution_param {
    num_output: 24
    kernel_size: 1
    weight_filler {
      type: "xavier"
      std: 0.2
    }
    bias_filler {
      type: "constant"
      value: 0.2
    }
  }
}
layer {
  name: "inception_4b/relu_5x5_reduce"
  type: "ReLU"
  bottom: "inception_4b/5x5_reduce"
  top: "inception_4b/5x5_reduce"
}
layer {
  name: "inception_4b/5x5"
  type: "Convolution"
  bottom: "inception_4b/5x5_reduce"
  top: "inception_4b/5x5"
  param {
    lr_mult: 1
    decay_mult: 1
  }
  param {
    lr_mult: 2
    decay_mult: 0
  }
  convolution_param {
    num_output: 64
    pad: 2
    kernel_size: 5
    weight_filler {
      type: "xavier"
      std: 0.03
    }
    bias_filler {
      type: "constant"
      value: 0.2
    }
  }
}
layer {
  name: "inception_4b/relu_5x5"
  type: "ReLU"
  bottom: "inception_4b/5x5"
  top: "inception_4b/5x5"
}
layer {
  name: "inception_4b/pool"
  type: "Pooling"
  bottom: "inception_4a/output"
  top: "inception_4b/pool"
  pooling_param {
    pool: MAX
    kernel_size: 3
    stride: 1
    pad: 1
  }
}
layer {
  name: "inception_4b/pool_proj"
  type: "Convolution"
  bottom: "inception_4b/pool"
  top: "inception_4b/pool_proj"
  param {
    lr_mult: 1
    decay_mult: 1
  }
  param {
    lr_mult: 2
    decay_mult: 0
  }
  convolution_param {
    num_output: 64
    kernel_size: 1
    weight_filler {
      type: "xavier"
      std: 0.1
    }
    bias_filler {
      type: "constant"
      value: 0.2
    }
  }
}
layer {
  name: "inception_4b/relu_pool_proj"
  type: "ReLU"
  bottom: "inception_4b/pool_proj"
  top: "inception_4b/pool_proj"
}
layer {
  name: "inception_4b/output"
  type: "Concat"
  bottom: "inception_4b/1x1"
  bottom: "inception_4b/3x3"
  bottom: "inception_4b/5x5"
  bottom: "inception_4b/pool_proj"
  top: "inception_4b/output"
}
layer {
  name: "inception_4c/1x1"
  type: "Convolution"
  bottom: "inception_4b/output"
  top: "inception_4c/1x1"
  param {
    lr_mult: 1
    decay_mult: 1
  }
  param {
    lr_mult: 2
    decay_mult: 0
  }
  convolution_param {
    num_output: 128
    kernel_size: 1
    weight_filler {
      type: "xavier"
      std: 0.03
    }
    bias_filler {
      type: "constant"
      value: 0.2
    }
  }
}
layer {
  name: "inception_4c/relu_1x1"
  type: "ReLU"
  bottom: "inception_4c/1x1"
  top: "inception_4c/1x1"
}
layer {
  name: "inception_4c/3x3_reduce"
  type: "Convolution"
  bottom: "inception_4b/output"
  top: "inception_4c/3x3_reduce"
  param {
    lr_mult: 1
    decay_mult: 1
  }
  param {
    lr_mult: 2
    decay_mult: 0
  }
  convolution_param {
    num_output: 128
    kernel_size: 1
    weight_filler {
      type: "xavier"
      std: 0.09
    }
    bias_filler {
      type: "constant"
      value: 0.2
    }
  }
}
layer {
  name: "inception_4c/relu_3x3_reduce"
  type: "ReLU"
  bottom: "inception_4c/3x3_reduce"
  top: "inception_4c/3x3_reduce"
}
layer {
  name: "inception_4c/3x3"
  type: "Convolution"
  bottom: "inception_4c/3x3_reduce"
  top: "inception_4c/3x3"
  param {
    lr_mult: 1
    decay_mult: 1
  }
  param {
    lr_mult: 2
    decay_mult: 0
  }
  convolution_param {
    num_output: 256
    pad: 1
    kernel_size: 3
    weight_filler {
      type: "xavier"
      std: 0.03
    }
    bias_filler {
      type: "constant"
      value: 0.2
    }
  }
}
layer {
  name: "inception_4c/relu_3x3"
  type: "ReLU"
  bottom: "inception_4c/3x3"
  top: "inception_4c/3x3"
}
layer {
  name: "inception_4c/5x5_reduce"
  type: "Convolution"
  bottom: "inception_4b/output"
  top: "inception_4c/5x5_reduce"
  param {
    lr_mult: 1
    decay_mult: 1
  }
  param {
    lr_mult: 2
    decay_mult: 0
  }
  convolution_param {
    num_output: 24
    kernel_size: 1
    weight_filler {
      type: "xavier"
      std: 0.2
    }
    bias_filler {
      type: "constant"
      value: 0.2
    }
  }
}
layer {
  name: "inception_4c/relu_5x5_reduce"
  type: "ReLU"
  bottom: "inception_4c/5x5_reduce"
  top: "inception_4c/5x5_reduce"
}
layer {
  name: "inception_4c/5x5"
  type: "Convolution"
  bottom: "inception_4c/5x5_reduce"
  top: "inception_4c/5x5"
  param {
    lr_mult: 1
    decay_mult: 1
  }
  param {
    lr_mult: 2
    decay_mult: 0
  }
  convolution_param {
    num_output: 64
    pad: 2
    kernel_size: 5
    weight_filler {
      type: "xavier"
      std: 0.03
    }
    bias_filler {
      type: "constant"
      value: 0.2
    }
  }
}
layer {
  name: "inception_4c/relu_5x5"
  type: "ReLU"
  bottom: "inception_4c/5x5"
  top: "inception_4c/5x5"
}
layer {
  name: "inception_4c/pool"
  type: "Pooling"
  bottom: "inception_4b/output"
  top: "inception_4c/pool"
  pooling_param {
    pool: MAX
    kernel_size: 3
    stride: 1
    pad: 1
  }
}
layer {
  name: "inception_4c/pool_proj"
  type: "Convolution"
  bottom: "inception_4c/pool"
  top: "inception_4c/pool_proj"
  param {
    lr_mult: 1
    decay_mult: 1
  }
  param {
    lr_mult: 2
    decay_mult: 0
  }
  convolution_param {
    num_output: 64
    kernel_size: 1
    weight_filler {
      type: "xavier"
      std: 0.1
    }
    bias_filler {
      type: "constant"
      value: 0.2
    }
  }
}
layer {
  name: "inception_4c/relu_pool_proj"
  type: "ReLU"
  bottom: "inception_4c/pool_proj"
  top: "inception_4c/pool_proj"
}
layer {
  name: "inception_4c/output"
  type: "Concat"
  bottom: "inception_4c/1x1"
  bottom: "inception_4c/3x3"
  bottom: "inception_4c/5x5"
  bottom: "inception_4c/pool_proj"
  top: "inception_4c/output"
}
layer {
  name: "inception_4d/1x1"
  type: "Convolution"
  bottom: "inception_4c/output"
  top: "inception_4d/1x1"
  param {
    lr_mult: 1
    decay_mult: 1
  }
  param {
    lr_mult: 2
    decay_mult: 0
  }
  convolution_param {
    num_output: 112
    kernel_size: 1
    weight_filler {
      type: "xavier"
      std: 0.03
    }
    bias_filler {
      type: "constant"
      value: 0.2
    }
  }
}
layer {
  name: "inception_4d/relu_1x1"
  type: "ReLU"
  bottom: "inception_4d/1x1"
  top: "inception_4d/1x1"
}
layer {
  name: "inception_4d/3x3_reduce"
  type: "Convolution"
  bottom: "inception_4c/output"
  top: "inception_4d/3x3_reduce"
  param {
    lr_mult: 1
    decay_mult: 1
  }
  param {
    lr_mult: 2
    decay_mult: 0
  }
  convolution_param {
    num_output: 144
    kernel_size: 1
    weight_filler {
      type: "xavier"
      std: 0.09
    }
    bias_filler {
      type: "constant"
      value: 0.2
    }
  }
}
layer {
  name: "inception_4d/relu_3x3_reduce"
  type: "ReLU"
  bottom: "inception_4d/3x3_reduce"
  top: "inception_4d/3x3_reduce"
}
layer {
  name: "inception_4d/3x3"
  type: "Convolution"
  bottom: "inception_4d/3x3_reduce"
  top: "inception_4d/3x3"
  param {
    lr_mult: 1
    decay_mult: 1
  }
  param {
    lr_mult: 2
    decay_mult: 0
  }
  convolution_param {
    num_output: 288
    pad: 1
    kernel_size: 3
    weight_filler {
      type: "xavier"
      std: 0.03
    }
    bias_filler {
      type: "constant"
      value: 0.2
    }
  }
}
layer {
  name: "inception_4d/relu_3x3"
  type: "ReLU"
  bottom: "inception_4d/3x3"
  top: "inception_4d/3x3"
}
layer {
  name: "inception_4d/5x5_reduce"
  type: "Convolution"
  bottom: "inception_4c/output"
  top: "inception_4d/5x5_reduce"
  param {
    lr_mult: 1
    decay_mult: 1
  }
  param {
    lr_mult: 2
    decay_mult: 0
  }
  convolution_param {
    num_output: 32
    kernel_size: 1
    weight_filler {
      type: "xavier"
      std: 0.2
    }
    bias_filler {
      type: "constant"
      value: 0.2
    }
  }
}
layer {
  name: "inception_4d/relu_5x5_reduce"
  type: "ReLU"
  bottom: "inception_4d/5x5_reduce"
  top: "inception_4d/5x5_reduce"
}
layer {
  name: "inception_4d/5x5"
  type: "Convolution"
  bottom: "inception_4d/5x5_reduce"
  top: "inception_4d/5x5"
  param {
    lr_mult: 1
    decay_mult: 1
  }
  param {
    lr_mult: 2
    decay_mult: 0
  }
  convolution_param {
    num_output: 64
    pad: 2
    kernel_size: 5
    weight_filler {
      type: "xavier"
      std: 0.03
    }
    bias_filler {
      type: "constant"
      value: 0.2
    }
  }
}
layer {
  name: "inception_4d/relu_5x5"
  type: "ReLU"
  bottom: "inception_4d/5x5"
  top: "inception_4d/5x5"
}
layer {
  name: "inception_4d/pool"
  type: "Pooling"
  bottom: "inception_4c/output"
  top: "inception_4d/pool"
  pooling_param {
    pool: MAX
    kernel_size: 3
    stride: 1
    pad: 1
  }
}
layer {
  name: "inception_4d/pool_proj"
  type: "Convolution"
  bottom: "inception_4d/pool"
  top: "inception_4d/pool_proj"
  param {
    lr_mult: 1
    decay_mult: 1
  }
  param {
    lr_mult: 2
    decay_mult: 0
  }
  convolution_param {
    num_output: 64
    kernel_size: 1
    weight_filler {
      type: "xavier"
      std: 0.1
    }
    bias_filler {
      type: "constant"
      value: 0.2
    }
  }
}
layer {
  name: "inception_4d/relu_pool_proj"
  type: "ReLU"
  bottom: "inception_4d/pool_proj"
  top: "inception_4d/pool_proj"
}
layer {
  name: "inception_4d/output"
  type: "Concat"
  bottom: "inception_4d/1x1"
  bottom: "inception_4d/3x3"
  bottom: "inception_4d/5x5"
  bottom: "inception_4d/pool_proj"
  top: "inception_4d/output"
}
layer {
  name: "inception_4e/1x1"
  type: "Convolution"
  bottom: "inception_4d/output"
  top: "inception_4e/1x1"
  param {
    lr_mult: 1
    decay_mult: 1
  }
  param {
    lr_mult: 2
    decay_mult: 0
  }
  convolution_param {
    num_output: 256
    kernel_size: 1
    weight_filler {
      type: "xavier"
      std: 0.03
    }
    bias_filler {
      type: "constant"
      value: 0.2
    }
  }
}
layer {
  name: "inception_4e/relu_1x1"
  type: "ReLU"
  bottom: "inception_4e/1x1"
  top: "inception_4e/1x1"
}
layer {
  name: "inception_4e/3x3_reduce"
  type: "Convolution"
  bottom: "inception_4d/output"
  top: "inception_4e/3x3_reduce"
  param {
    lr_mult: 1
    decay_mult: 1
  }
  param {
    lr_mult: 2
    decay_mult: 0
  }
  convolution_param {
    num_output: 160
    kernel_size: 1
    weight_filler {
      type: "xavier"
      std: 0.09
    }
    bias_filler {
      type: "constant"
      value: 0.2
    }
  }
}
layer {
  name: "inception_4e/relu_3x3_reduce"
  type: "ReLU"
  bottom: "inception_4e/3x3_reduce"
  top: "inception_4e/3x3_reduce"
}
layer {
  name: "inception_4e/3x3"
  type: "Convolution"
  bottom: "inception_4e/3x3_reduce"
  top: "inception_4e/3x3"
  param {
    lr_mult: 1
    decay_mult: 1
  }
  param {
    lr_mult: 2
    decay_mult: 0
  }
  convolution_param {
    num_output: 320
    pad: 1
    kernel_size: 3
    weight_filler {
      type: "xavier"
      std: 0.03
    }
    bias_filler {
      type: "constant"
      value: 0.2
    }
  }
}
layer {
  name: "inception_4e/relu_3x3"
  type: "ReLU"
  bottom: "inception_4e/3x3"
  top: "inception_4e/3x3"
}
layer {
  name: "inception_4e/5x5_reduce"
  type: "Convolution"
  bottom: "inception_4d/output"
  top: "inception_4e/5x5_reduce"
  param {
    lr_mult: 1
    decay_mult: 1
  }
  param {
    lr_mult: 2
    decay_mult: 0
  }
  convolution_param {
    num_output: 32
    kernel_size: 1
    weight_filler {
      type: "xavier"
      std: 0.2
    }
    bias_filler {
      type: "constant"
      value: 0.2
    }
  }
}
layer {
  name: "inception_4e/relu_5x5_reduce"
  type: "ReLU"
  bottom: "inception_4e/5x5_reduce"
  top: "inception_4e/5x5_reduce"
}
layer {
  name: "inception_4e/5x5"
  type: "Convolution"
  bottom: "inception_4e/5x5_reduce"
  top: "inception_4e/5x5"
  param {
    lr_mult: 1
    decay_mult: 1
  }
  param {
    lr_mult: 2
    decay_mult: 0
  }
  convolution_param {
    num_output: 128
    pad: 2
    kernel_size: 5
    weight_filler {
      type: "xavier"
      std: 0.03
    }
    bias_filler {
      type: "constant"
      value: 0.2
    }
  }
}
layer {
  name: "inception_4e/relu_5x5"
  type: "ReLU"
  bottom: "inception_4e/5x5"
  top: "inception_4e/5x5"
}
layer {
  name: "inception_4e/pool"
  type: "Pooling"
  bottom: "inception_4d/output"
  top: "inception_4e/pool"
  pooling_param {
    pool: MAX
    kernel_size: 3
    stride: 1
    pad: 1
  }
}
layer {
  name: "inception_4e/pool_proj"
  type: "Convolution"
  bottom: "inception_4e/pool"
  top: "inception_4e/pool_proj"
  param {
    lr_mult: 1
    decay_mult: 1
  }
  param {
    lr_mult: 2
    decay_mult: 0
  }
  convolution_param {
    num_output: 128
    kernel_size: 1
    weight_filler {
      type: "xavier"
      std: 0.1
    }
    bias_filler {
      type: "constant"
      value: 0.2
    }
  }
}
layer {
  name: "inception_4e/relu_pool_proj"
  type: "ReLU"
  bottom: "inception_4e/pool_proj"
  top: "inception_4e/pool_proj"
}
layer {
  name: "inception_4e/output"
  type: "Concat"
  bottom: "inception_4e/1x1"
  bottom: "inception_4e/3x3"
  bottom: "inception_4e/5x5"
  bottom: "inception_4e/pool_proj"
  top: "inception_4e/output"
}
layer {
  name: "pool4/3x3_s2"
  type: "Pooling"
  bottom: "inception_4e/output"
  top: "pool4/3x3_s2"
  pooling_param {
    pool: MAX
    kernel_size: 3
    stride: 2
  }
}
layer {
  name: "inception_5a/1x1"
  type: "Convolution"
  bottom: "pool4/3x3_s2"
  top: "inception_5a/1x1"
  param {
    lr_mult: 1
    decay_mult: 1
  }
  param {
    lr_mult: 2
    decay_mult: 0
  }
  convolution_param {
    num_output: 256
    kernel_size: 1
    weight_filler {
      type: "xavier"
      std: 0.03
    }
    bias_filler {
      type: "constant"
      value: 0.2
    }
  }
}
layer {
  name: "inception_5a/relu_1x1"
  type: "ReLU"
  bottom: "inception_5a/1x1"
  top: "inception_5a/1x1"
}
layer {
  name: "inception_5a/3x3_reduce"
  type: "Convolution"
  bottom: "pool4/3x3_s2"
  top: "inception_5a/3x3_reduce"
  param {
    lr_mult: 1
    decay_mult: 1
  }
  param {
    lr_mult: 2
    decay_mult: 0
  }
  convolution_param {
    num_output: 160
    kernel_size: 1
    weight_filler {
      type: "xavier"
      std: 0.09
    }
    bias_filler {
      type: "constant"
      value: 0.2
    }
  }
}
layer {
  name: "inception_5a/relu_3x3_reduce"
  type: "ReLU"
  bottom: "inception_5a/3x3_reduce"
  top: "inception_5a/3x3_reduce"
}
layer {
  name: "inception_5a/3x3"
  type: "Convolution"
  bottom: "inception_5a/3x3_reduce"
  top: "inception_5a/3x3"
  param {
    lr_mult: 1
    decay_mult: 1
  }
  param {
    lr_mult: 2
    decay_mult: 0
  }
  convolution_param {
    num_output: 320
    pad: 1
    kernel_size: 3
    weight_filler {
      type: "xavier"
      std: 0.03
    }
    bias_filler {
      type: "constant"
      value: 0.2
    }
  }
}
layer {
  name: "inception_5a/relu_3x3"
  type: "ReLU"
  bottom: "inception_5a/3x3"
  top: "inception_5a/3x3"
}
layer {
  name: "inception_5a/5x5_reduce"
  type: "Convolution"
  bottom: "pool4/3x3_s2"
  top: "inception_5a/5x5_reduce"
  param {
    lr_mult: 1
    decay_mult: 1
  }
  param {
    lr_mult: 2
    decay_mult: 0
  }
  convolution_param {
    num_output: 32
    kernel_size: 1
    weight_filler {
      type: "xavier"
      std: 0.2
    }
    bias_filler {
      type: "constant"
      value: 0.2
    }
  }
}
layer {
  name: "inception_5a/relu_5x5_reduce"
  typ
I0714 14:17:11.011693  3045 net.cpp:370] Input 0 -> data
I0714 14:17:11.011746  3045 layer_factory.hpp:74] Creating layer conv1/7x7_s2
I0714 14:17:11.011765  3045 net.cpp:90] Creating Layer conv1/7x7_s2
I0714 14:17:11.011771  3045 net.cpp:410] conv1/7x7_s2 <- data
I0714 14:17:11.011782  3045 net.cpp:368] conv1/7x7_s2 -> conv1/7x7_s2
I0714 14:17:11.011795  3045 net.cpp:120] Setting up conv1/7x7_s2
I0714 14:17:11.012349  3045 net.cpp:127] Top shape: 10 64 112 112 (8028160)
I0714 14:17:11.012368  3045 layer_factory.hpp:74] Creating layer conv1/relu_7x7
I0714 14:17:11.012380  3045 net.cpp:90] Creating Layer conv1/relu_7x7
I0714 14:17:11.012387  3045 net.cpp:410] conv1/relu_7x7 <- conv1/7x7_s2
I0714 14:17:11.012393  3045 net.cpp:357] conv1/relu_7x7 -> conv1/7x7_s2 (in-place)
I0714 14:17:11.012400  3045 net.cpp:120] Setting up conv1/relu_7x7
I0714 14:17:11.012413  3045 net.cpp:127] Top shape: 10 64 112 112 (8028160)
I0714 14:17:11.012418  3045 layer_factory.hpp:74] Creating layer pool1/3x3_s2
I0714 14:17:11.012425  3045 net.cpp:90] Creating Layer pool1/3x3_s2
I0714 14:17:11.012431  3045 net.cpp:410] pool1/3x3_s2 <- conv1/7x7_s2
I0714 14:17:11.012441  3045 net.cpp:368] pool1/3x3_s2 -> pool1/3x3_s2
I0714 14:17:11.012450  3045 net.cpp:120] Setting up pool1/3x3_s2
I0714 14:17:11.012465  3045 net.cpp:127] Top shape: 10 64 56 56 (2007040)
I0714 14:17:11.012471  3045 layer_factory.hpp:74] Creating layer pool1/norm1
I0714 14:17:11.012483  3045 net.cpp:90] Creating Layer pool1/norm1
I0714 14:17:11.012488  3045 net.cpp:410] pool1/norm1 <- pool1/3x3_s2
I0714 14:17:11.012495  3045 net.cpp:368] pool1/norm1 -> pool1/norm1
I0714 14:17:11.012503  3045 net.cpp:120] Setting up pool1/norm1
I0714 14:17:11.012514  3045 net.cpp:127] Top shape: 10 64 56 56 (2007040)
I0714 14:17:11.012521  3045 layer_factory.hpp:74] Creating layer conv2/3x3_reduce
I0714 14:17:11.012534  3045 net.cpp:90] Creating Layer conv2/3x3_reduce
I0714 14:17:11.012540  3045 net.cpp:410] conv2/3x3_reduce <- pool1/norm1
I0714 14:17:11.012548  3045 net.cpp:368] conv2/3x3_reduce -> conv2/3x3_reduce
I0714 14:17:11.012557  3045 net.cpp:120] Setting up conv2/3x3_reduce
I0714 14:17:11.012614  3045 net.cpp:127] Top shape: 10 64 56 56 (2007040)
I0714 14:17:11.012625  3045 layer_factory.hpp:74] Creating layer conv2/relu_3x3_reduce
I0714 14:17:11.012632  3045 net.cpp:90] Creating Layer conv2/relu_3x3_reduce
I0714 14:17:11.012639  3045 net.cpp:410] conv2/relu_3x3_reduce <- conv2/3x3_reduce
I0714 14:17:11.012647  3045 net.cpp:357] conv2/relu_3x3_reduce -> conv2/3x3_reduce (in-place)
I0714 14:17:11.012655  3045 net.cpp:120] Setting up conv2/relu_3x3_reduce
I0714 14:17:11.012661  3045 net.cpp:127] Top shape: 10 64 56 56 (2007040)
I0714 14:17:11.012672  3045 layer_factory.hpp:74] Creating layer conv2/3x3
I0714 14:17:11.012681  3045 net.cpp:90] Creating Layer conv2/3x3
I0714 14:17:11.012686  3045 net.cpp:410] conv2/3x3 <- conv2/3x3_reduce
I0714 14:17:11.012696  3045 net.cpp:368] conv2/3x3 -> conv2/3x3
I0714 14:17:11.012706  3045 net.cpp:120] Setting up conv2/3x3
I0714 14:17:11.013675  3045 net.cpp:127] Top shape: 10 192 56 56 (6021120)
I0714 14:17:11.013689  3045 layer_factory.hpp:74] Creating layer conv2/relu_3x3
I0714 14:17:11.013700  3045 net.cpp:90] Creating Layer conv2/relu_3x3
I0714 14:17:11.013705  3045 net.cpp:410] conv2/relu_3x3 <- conv2/3x3
I0714 14:17:11.013712  3045 net.cpp:357] conv2/relu_3x3 -> conv2/3x3 (in-place)
I0714 14:17:11.013720  3045 net.cpp:120] Setting up conv2/relu_3x3
I0714 14:17:11.013725  3045 net.cpp:127] Top shape: 10 192 56 56 (6021120)
I0714 14:17:11.013731  3045 layer_factory.hpp:74] Creating layer conv2/norm2
I0714 14:17:11.013741  3045 net.cpp:90] Creating Layer conv2/norm2
I0714 14:17:11.013746  3045 net.cpp:410] conv2/norm2 <- conv2/3x3
I0714 14:17:11.013753  3045 net.cpp:368] conv2/norm2 -> conv2/norm2
I0714 14:17:11.013761  3045 net.cpp:120] Setting up conv2/norm2
I0714 14:17:11.013769  3045 net.cpp:127] Top shape: 10 192 56 56 (6021120)
I0714 14:17:11.013775  3045 layer_factory.hpp:74] Creating layer pool2/3x3_s2
I0714 14:17:11.013784  3045 net.cpp:90] Creating Layer pool2/3x3_s2
I0714 14:17:11.013790  3045 net.cpp:410] pool2/3x3_s2 <- conv2/norm2
I0714 14:17:11.013797  3045 net.cpp:368] pool2/3x3_s2 -> pool2/3x3_s2
I0714 14:17:11.013805  3045 net.cpp:120] Setting up pool2/3x3_s2
I0714 14:17:11.013816  3045 net.cpp:127] Top shape: 10 192 28 28 (1505280)
I0714 14:17:11.013823  3045 layer_factory.hpp:74] Creating layer pool2/3x3_s2_pool2/3x3_s2_0_split
I0714 14:17:11.013831  3045 net.cpp:90] Creating Layer pool2/3x3_s2_pool2/3x3_s2_0_split
I0714 14:17:11.013838  3045 net.cpp:410] pool2/3x3_s2_pool2/3x3_s2_0_split <- pool2/3x3_s2
I0714 14:17:11.013844  3045 net.cpp:368] pool2/3x3_s2_pool2/3x3_s2_0_split -> pool2/3x3_s2_pool2/3x3_s2_0_split_0
I0714 14:17:11.013854  3045 net.cpp:368] pool2/3x3_s2_pool2/3x3_s2_0_split -> pool2/3x3_s2_pool2/3x3_s2_0_split_1
I0714 14:17:11.013861  3045 net.cpp:368] pool2/3x3_s2_pool2/3x3_s2_0_split -> pool2/3x3_s2_pool2/3x3_s2_0_split_2
I0714 14:17:11.013870  3045 net.cpp:368] pool2/3x3_s2_pool2/3x3_s2_0_split -> pool2/3x3_s2_pool2/3x3_s2_0_split_3
I0714 14:17:11.013876  3045 net.cpp:120] Setting up pool2/3x3_s2_pool2/3x3_s2_0_split
I0714 14:17:11.013890  3045 net.cpp:127] Top shape: 10 192 28 28 (1505280)
I0714 14:17:11.013897  3045 net.cpp:127] Top shape: 10 192 28 28 (1505280)
I0714 14:17:11.013903  3045 net.cpp:127] Top shape: 10 192 28 28 (1505280)
I0714 14:17:11.013909  3045 net.cpp:127] Top shape: 10 192 28 28 (1505280)
I0714 14:17:11.013914  3045 layer_factory.hpp:74] Creating layer inception_3a/1x1
I0714 14:17:11.013922  3045 net.cpp:90] Creating Layer inception_3a/1x1
I0714 14:17:11.013931  3045 net.cpp:410] inception_3a/1x1 <- pool2/3x3_s2_pool2/3x3_s2_0_split_0
I0714 14:17:11.013967  3045 net.cpp:368] inception_3a/1x1 -> inception_3a/1x1
I0714 14:17:11.013979  3045 net.cpp:120] Setting up inception_3a/1x1
I0714 14:17:11.014106  3045 net.cpp:127] Top shape: 10 64 28 28 (501760)
I0714 14:17:11.014117  3045 layer_factory.hpp:74] Creating layer inception_3a/relu_1x1
I0714 14:17:11.014124  3045 net.cpp:90] Creating Layer inception_3a/relu_1x1
I0714 14:17:11.014129  3045 net.cpp:410] inception_3a/relu_1x1 <- inception_3a/1x1
I0714 14:17:11.014139  3045 net.cpp:357] inception_3a/relu_1x1 -> inception_3a/1x1 (in-place)
I0714 14:17:11.014147  3045 net.cpp:120] Setting up inception_3a/relu_1x1
I0714 14:17:11.014153  3045 net.cpp:127] Top shape: 10 64 28 28 (501760)
I0714 14:17:11.014159  3045 layer_factory.hpp:74] Creating layer inception_3a/3x3_reduce
I0714 14:17:11.014168  3045 net.cpp:90] Creating Layer inception_3a/3x3_reduce
I0714 14:17:11.014173  3045 net.cpp:410] inception_3a/3x3_reduce <- pool2/3x3_s2_pool2/3x3_s2_0_split_1
I0714 14:17:11.014183  3045 net.cpp:368] inception_3a/3x3_reduce -> inception_3a/3x3_reduce
I0714 14:17:11.014196  3045 net.cpp:120] Setting up inception_3a/3x3_reduce
I0714 14:17:11.014377  3045 net.cpp:127] Top shape: 10 96 28 28 (752640)
I0714 14:17:11.014391  3045 layer_factory.hpp:74] Creating layer inception_3a/relu_3x3_reduce
I0714 14:17:11.014399  3045 net.cpp:90] Creating Layer inception_3a/relu_3x3_reduce
I0714 14:17:11.014405  3045 net.cpp:410] inception_3a/relu_3x3_reduce <- inception_3a/3x3_reduce
I0714 14:17:11.014413  3045 net.cpp:357] inception_3a/relu_3x3_reduce -> inception_3a/3x3_reduce (in-place)
I0714 14:17:11.014421  3045 net.cpp:120] Setting up inception_3a/relu_3x3_reduce
I0714 14:17:11.014428  3045 net.cpp:127] Top shape: 10 96 28 28 (752640)
I0714 14:17:11.014433  3045 layer_factory.hpp:74] Creating layer inception_3a/3x3
I0714 14:17:11.014441  3045 net.cpp:90] Creating Layer inception_3a/3x3
I0714 14:17:11.014446  3045 net.cpp:410] inception_3a/3x3 <- inception_3a/3x3_reduce
I0714 14:17:11.014456  3045 net.cpp:368] inception_3a/3x3 -> inception_3a/3x3
I0714 14:17:11.014466  3045 net.cpp:120] Setting up inception_3a/3x3
I0714 14:17:11.015429  3045 net.cpp:127] Top shape: 10 128 28 28 (1003520)
I0714 14:17:11.015441  3045 layer_factory.hpp:74] Creating layer inception_3a/relu_3x3
I0714 14:17:11.015450  3045 net.cpp:90] Creating Layer inception_3a/relu_3x3
I0714 14:17:11.015456  3045 net.cpp:410] inception_3a/relu_3x3 <- inception_3a/3x3
I0714 14:17:11.015465  3045 net.cpp:357] inception_3a/relu_3x3 -> inception_3a/3x3 (in-place)
I0714 14:17:11.015473  3045 net.cpp:120] Setting up inception_3a/relu_3x3
I0714 14:17:11.015480  3045 net.cpp:127] Top shape: 10 128 28 28 (1003520)
I0714 14:17:11.015486  3045 layer_factory.hpp:74] Creating layer inception_3a/5x5_reduce
I0714 14:17:11.015493  3045 net.cpp:90] Creating Layer inception_3a/5x5_reduce
I0714 14:17:11.015498  3045 net.cpp:410] inception_3a/5x5_reduce <- pool2/3x3_s2_pool2/3x3_s2_0_split_2
I0714 14:17:11.015509  3045 net.cpp:368] inception_3a/5x5_reduce -> inception_3a/5x5_reduce
I0714 14:17:11.015517  3045 net.cpp:120] Setting up inception_3a/5x5_reduce
I0714 14:17:11.015563  3045 net.cpp:127] Top shape: 10 16 28 28 (125440)
I0714 14:17:11.015573  3045 layer_factory.hpp:74] Creating layer inception_3a/relu_5x5_reduce
I0714 14:17:11.015578  3045 net.cpp:90] Creating Layer inception_3a/relu_5x5_reduce
I0714 14:17:11.015584  3045 net.cpp:410] inception_3a/relu_5x5_reduce <- inception_3a/5x5_reduce
I0714 14:17:11.015594  3045 net.cpp:357] inception_3a/relu_5x5_reduce -> inception_3a/5x5_reduce (in-place)
I0714 14:17:11.015600  3045 net.cpp:120] Setting up inception_3a/relu_5x5_reduce
I0714 14:17:11.015607  3045 net.cpp:127] Top shape: 10 16 28 28 (125440)
I0714 14:17:11.015612  3045 layer_factory.hpp:74] Creating layer inception_3a/5x5
I0714 14:17:11.015619  3045 net.cpp:90] Creating Layer inception_3a/5x5
I0714 14:17:11.015625  3045 net.cpp:410] inception_3a/5x5 <- inception_3a/5x5_reduce
I0714 14:17:11.015635  3045 net.cpp:368] inception_3a/5x5 -> inception_3a/5x5
I0714 14:17:11.015645  3045 net.cpp:120] Setting up inception_3a/5x5
I0714 14:17:11.015769  3045 net.cpp:127] Top shape: 10 32 28 28 (250880)
I0714 14:17:11.015779  3045 layer_factory.hpp:74] Creating layer inception_3a/relu_5x5
I0714 14:17:11.015785  3045 net.cpp:90] Creating Layer inception_3a/relu_5x5
I0714 14:17:11.015790  3045 net.cpp:410] inception_3a/relu_5x5 <- inception_3a/5x5
I0714 14:17:11.015799  3045 net.cpp:357] inception_3a/relu_5x5 -> inception_3a/5x5 (in-place)
I0714 14:17:11.015806  3045 net.cpp:120] Setting up inception_3a/relu_5x5
I0714 14:17:11.015813  3045 net.cpp:127] Top shape: 10 32 28 28 (250880)
I0714 14:17:11.015818  3045 layer_factory.hpp:74] Creating layer inception_3a/pool
I0714 14:17:11.015825  3045 net.cpp:90] Creating Layer inception_3a/pool
I0714 14:17:11.015831  3045 net.cpp:410] inception_3a/pool <- pool2/3x3_s2_pool2/3x3_s2_0_split_3
I0714 14:17:11.015838  3045 net.cpp:368] inception_3a/pool -> inception_3a/pool
I0714 14:17:11.015846  3045 net.cpp:120] Setting up inception_3a/pool
I0714 14:17:11.015861  3045 net.cpp:127] Top shape: 10 192 28 28 (1505280)
I0714 14:17:11.015866  3045 layer_factory.hpp:74] Creating layer inception_3a/pool_proj
I0714 14:17:11.015877  3045 net.cpp:90] Creating Layer inception_3a/pool_proj
I0714 14:17:11.015883  3045 net.cpp:410] inception_3a/pool_proj <- inception_3a/pool
I0714 14:17:11.015893  3045 net.cpp:368] inception_3a/pool_proj -> inception_3a/pool_proj
I0714 14:17:11.015902  3045 net.cpp:120] Setting up inception_3a/pool_proj
I0714 14:17:11.015974  3045 net.cpp:127] Top shape: 10 32 28 28 (250880)
I0714 14:17:11.015985  3045 layer_factory.hpp:74] Creating layer inception_3a/relu_pool_proj
I0714 14:17:11.015993  3045 net.cpp:90] Creating Layer inception_3a/relu_pool_proj
I0714 14:17:11.015998  3045 net.cpp:410] inception_3a/relu_pool_proj <- inception_3a/pool_proj
I0714 14:17:11.016005  3045 net.cpp:357] inception_3a/relu_pool_proj -> inception_3a/pool_proj (in-place)
I0714 14:17:11.016013  3045 net.cpp:120] Setting up inception_3a/relu_pool_proj
I0714 14:17:11.016021  3045 net.cpp:127] Top shape: 10 32 28 28 (250880)
I0714 14:17:11.016026  3045 layer_factory.hpp:74] Creating layer inception_3a/output
I0714 14:17:11.016041  3045 net.cpp:90] Creating Layer inception_3a/output
I0714 14:17:11.016047  3045 net.cpp:410] inception_3a/output <- inception_3a/1x1
I0714 14:17:11.016054  3045 net.cpp:410] inception_3a/output <- inception_3a/3x3
I0714 14:17:11.016060  3045 net.cpp:410] inception_3a/output <- inception_3a/5x5
I0714 14:17:11.016067  3045 net.cpp:410] inception_3a/output <- inception_3a/pool_proj
I0714 14:17:11.016073  3045 net.cpp:368] inception_3a/output -> inception_3a/output
I0714 14:17:11.016082  3045 net.cpp:120] Setting up inception_3a/output
I0714 14:17:11.016094  3045 net.cpp:127] Top shape: 10 256 28 28 (2007040)
I0714 14:17:11.016100  3045 layer_factory.hpp:74] Creating layer inception_3a/output_inception_3a/output_0_split
I0714 14:17:11.016109  3045 net.cpp:90] Creating Layer inception_3a/output_inception_3a/output_0_split
I0714 14:17:11.016115  3045 net.cpp:410] inception_3a/output_inception_3a/output_0_split <- inception_3a/output
I0714 14:17:11.016122  3045 net.cpp:368] inception_3a/output_inception_3a/output_0_split -> inception_3a/output_inception_3a/output_0_split_0
I0714 14:17:11.016131  3045 net.cpp:368] inception_3a/output_inception_3a/output_0_split -> inception_3a/output_inception_3a/output_0_split_1
I0714 14:17:11.016139  3045 net.cpp:368] inception_3a/output_inception_3a/output_0_split -> inception_3a/output_inception_3a/output_0_split_2
I0714 14:17:11.016147  3045 net.cpp:368] inception_3a/output_inception_3a/output_0_split -> inception_3a/output_inception_3a/output_0_split_3
I0714 14:17:11.016155  3045 net.cpp:120] Setting up inception_3a/output_inception_3a/output_0_split
I0714 14:17:11.016163  3045 net.cpp:127] Top shape: 10 256 28 28 (2007040)
I0714 14:17:11.016170  3045 net.cpp:127] Top shape: 10 256 28 28 (2007040)
I0714 14:17:11.016175  3045 net.cpp:127] Top shape: 10 256 28 28 (2007040)
I0714 14:17:11.016181  3045 net.cpp:127] Top shape: 10 256 28 28 (2007040)
I0714 14:17:11.016186  3045 layer_factory.hpp:74] Creating layer inception_3b/1x1
I0714 14:17:11.016197  3045 net.cpp:90] Creating Layer inception_3b/1x1
I0714 14:17:11.016203  3045 net.cpp:410] inception_3b/1x1 <- inception_3a/output_inception_3a/output_0_split_0
I0714 14:17:11.016213  3045 net.cpp:368] inception_3b/1x1 -> inception_3b/1x1
I0714 14:17:11.016222  3045 net.cpp:120] Setting up inception_3b/1x1
I0714 14:17:11.016520  3045 net.cpp:127] Top shape: 10 128 28 28 (1003520)
I0714 14:17:11.016532  3045 layer_factory.hpp:74] Creating layer inception_3b/relu_1x1
I0714 14:17:11.016540  3045 net.cpp:90] Creating Layer inception_3b/relu_1x1
I0714 14:17:11.016546  3045 net.cpp:410] inception_3b/relu_1x1 <- inception_3b/1x1
I0714 14:17:11.016551  3045 net.cpp:357] inception_3b/relu_1x1 -> inception_3b/1x1 (in-place)
I0714 14:17:11.016558  3045 net.cpp:120] Setting up inception_3b/relu_1x1
I0714 14:17:11.016566  3045 net.cpp:127] Top shape: 10 128 28 28 (1003520)
I0714 14:17:11.016577  3045 layer_factory.hpp:74] Creating layer inception_3b/3x3_reduce
I0714 14:17:11.016587  3045 net.cpp:90] Creating Layer inception_3b/3x3_reduce
I0714 14:17:11.016593  3045 net.cpp:410] inception_3b/3x3_reduce <- inception_3a/output_inception_3a/output_0_split_1
I0714 14:17:11.016603  3045 net.cpp:368] inception_3b/3x3_reduce -> inception_3b/3x3_reduce
I0714 14:17:11.016613  3045 net.cpp:120] Setting up inception_3b/3x3_reduce
I0714 14:17:11.016911  3045 net.cpp:127] Top shape: 10 128 28 28 (1003520)
I0714 14:17:11.016922  3045 layer_factory.hpp:74] Creating layer inception_3b/relu_3x3_reduce
I0714 14:17:11.016929  3045 net.cpp:90] Creating Layer inception_3b/relu_3x3_reduce
I0714 14:17:11.016935  3045 net.cpp:410] inception_3b/relu_3x3_reduce <- inception_3b/3x3_reduce
I0714 14:17:11.016942  3045 net.cpp:357] inception_3b/relu_3x3_reduce -> inception_3b/3x3_reduce (in-place)
I0714 14:17:11.016949  3045 net.cpp:120] Setting up inception_3b/relu_3x3_reduce
I0714 14:17:11.016957  3045 net.cpp:127] Top shape: 10 128 28 28 (1003520)
I0714 14:17:11.016962  3045 layer_factory.hpp:74] Creating layer inception_3b/3x3
I0714 14:17:11.016971  3045 net.cpp:90] Creating Layer inception_3b/3x3
I0714 14:17:11.016978  3045 net.cpp:410] inception_3b/3x3 <- inception_3b/3x3_reduce
I0714 14:17:11.016988  3045 net.cpp:368] inception_3b/3x3 -> inception_3b/3x3
I0714 14:17:11.016996  3045 net.cpp:120] Setting up inception_3b/3x3
I0714 14:17:11.018919  3045 net.cpp:127] Top shape: 10 192 28 28 (1505280)
I0714 14:17:11.018932  3045 layer_factory.hpp:74] Creating layer inception_3b/relu_3x3
I0714 14:17:11.018940  3045 net.cpp:90] Creating Layer inception_3b/relu_3x3
I0714 14:17:11.018946  3045 net.cpp:410] inception_3b/relu_3x3 <- inception_3b/3x3
I0714 14:17:11.018954  3045 net.cpp:357] inception_3b/relu_3x3 -> inception_3b/3x3 (in-place)
I0714 14:17:11.018961  3045 net.cpp:120] Setting up inception_3b/relu_3x3
I0714 14:17:11.018968  3045 net.cpp:127] Top shape: 10 192 28 28 (1505280)
I0714 14:17:11.018973  3045 layer_factory.hpp:74] Creating layer inception_3b/5x5_reduce
I0714 14:17:11.018985  3045 net.cpp:90] Creating Layer inception_3b/5x5_reduce
I0714 14:17:11.018995  3045 net.cpp:410] inception_3b/5x5_reduce <- inception_3a/output_inception_3a/output_0_split_2
I0714 14:17:11.019003  3045 net.cpp:368] inception_3b/5x5_reduce -> inception_3b/5x5_reduce
I0714 14:17:11.019011  3045 net.cpp:120] Setting up inception_3b/5x5_reduce
I0714 14:17:11.019096  3045 net.cpp:127] Top shape: 10 32 28 28 (250880)
I0714 14:17:11.019105  3045 layer_factory.hpp:74] Creating layer inception_3b/relu_5x5_reduce
I0714 14:17:11.019112  3045 net.cpp:90] Creating Layer inception_3b/relu_5x5_reduce
I0714 14:17:11.019119  3045 net.cpp:410] inception_3b/relu_5x5_reduce <- inception_3b/5x5_reduce
I0714 14:17:11.019127  3045 net.cpp:357] inception_3b/relu_5x5_reduce -> inception_3b/5x5_reduce (in-place)
I0714 14:17:11.019134  3045 net.cpp:120] Setting up inception_3b/relu_5x5_reduce
I0714 14:17:11.019141  3045 net.cpp:127] Top shape: 10 32 28 28 (250880)
I0714 14:17:11.019146  3045 layer_factory.hpp:74] Creating layer inception_3b/5x5
I0714 14:17:11.019155  3045 net.cpp:90] Creating Layer inception_3b/5x5
I0714 14:17:11.019160  3045 net.cpp:410] inception_3b/5x5 <- inception_3b/5x5_reduce
I0714 14:17:11.019170  3045 net.cpp:368] inception_3b/5x5 -> inception_3b/5x5
I0714 14:17:11.019179  3045 net.cpp:120] Setting up inception_3b/5x5
I0714 14:17:11.019850  3045 net.cpp:127] Top shape: 10 96 28 28 (752640)
I0714 14:17:11.019861  3045 layer_factory.hpp:74] Creating layer inception_3b/relu_5x5
I0714 14:17:11.019868  3045 net.cpp:90] Creating Layer inception_3b/relu_5x5
I0714 14:17:11.019875  3045 net.cpp:410] inception_3b/relu_5x5 <- inception_3b/5x5
I0714 14:17:11.019881  3045 net.cpp:357] inception_3b/relu_5x5 -> inception_3b/5x5 (in-place)
I0714 14:17:11.019891  3045 net.cpp:120] Setting up inception_3b/relu_5x5
I0714 14:17:11.019897  3045 net.cpp:127] Top shape: 10 96 28 28 (752640)
I0714 14:17:11.019903  3045 layer_factory.hpp:74] Creating layer inception_3b/pool
I0714 14:17:11.019918  3045 net.cpp:90] Creating Layer inception_3b/pool
I0714 14:17:11.019924  3045 net.cpp:410] inception_3b/pool <- inception_3a/output_inception_3a/output_0_split_3
I0714 14:17:11.019932  3045 net.cpp:368] inception_3b/pool -> inception_3b/pool
I0714 14:17:11.019940  3045 net.cpp:120] Setting up inception_3b/pool
I0714 14:17:11.019951  3045 net.cpp:127] Top shape: 10 256 28 28 (2007040)
I0714 14:17:11.019958  3045 layer_factory.hpp:74] Creating layer inception_3b/pool_proj
I0714 14:17:11.019965  3045 net.cpp:90] Creating Layer inception_3b/pool_proj
I0714 14:17:11.019971  3045 net.cpp:410] inception_3b/pool_proj <- inception_3b/pool
I0714 14:17:11.019979  3045 net.cpp:368] inception_3b/pool_proj -> inception_3b/pool_proj
I0714 14:17:11.019986  3045 net.cpp:120] Setting up inception_3b/pool_proj
I0714 14:17:11.020143  3045 net.cpp:127] Top shape: 10 64 28 28 (501760)
I0714 14:17:11.020153  3045 layer_factory.hpp:74] Creating layer inception_3b/relu_pool_proj
I0714 14:17:11.020162  3045 net.cpp:90] Creating Layer inception_3b/relu_pool_proj
I0714 14:17:11.020169  3045 net.cpp:410] inception_3b/relu_pool_proj <- inception_3b/pool_proj
I0714 14:17:11.020175  3045 net.cpp:357] inception_3b/relu_pool_proj -> inception_3b/pool_proj (in-place)
I0714 14:17:11.020182  3045 net.cpp:120] Setting up inception_3b/relu_pool_proj
I0714 14:17:11.020190  3045 net.cpp:127] Top shape: 10 64 28 28 (501760)
I0714 14:17:11.020195  3045 layer_factory.hpp:74] Creating layer inception_3b/output
I0714 14:17:11.020201  3045 net.cpp:90] Creating Layer inception_3b/output
I0714 14:17:11.020210  3045 net.cpp:410] inception_3b/output <- inception_3b/1x1
I0714 14:17:11.020215  3045 net.cpp:410] inception_3b/output <- inception_3b/3x3
I0714 14:17:11.020221  3045 net.cpp:410] inception_3b/output <- inception_3b/5x5
I0714 14:17:11.020227  3045 net.cpp:410] inception_3b/output <- inception_3b/pool_proj
I0714 14:17:11.020234  3045 net.cpp:368] inception_3b/output -> inception_3b/output
I0714 14:17:11.020242  3045 net.cpp:120] Setting up inception_3b/output
I0714 14:17:11.020251  3045 net.cpp:127] Top shape: 10 480 28 28 (3763200)
I0714 14:17:11.020256  3045 layer_factory.hpp:74] Creating layer pool3/3x3_s2
I0714 14:17:11.020263  3045 net.cpp:90] Creating Layer pool3/3x3_s2
I0714 14:17:11.020268  3045 net.cpp:410] pool3/3x3_s2 <- inception_3b/output
I0714 14:17:11.020280  3045 net.cpp:368] pool3/3x3_s2 -> pool3/3x3_s2
I0714 14:17:11.020290  3045 net.cpp:120] Setting up pool3/3x3_s2
I0714 14:17:11.020300  3045 net.cpp:127] Top shape: 10 480 14 14 (940800)
I0714 14:17:11.020305  3045 layer_factory.hpp:74] Creating layer pool3/3x3_s2_pool3/3x3_s2_0_split
I0714 14:17:11.020314  3045 net.cpp:90] Creating Layer pool3/3x3_s2_pool3/3x3_s2_0_split
I0714 14:17:11.020320  3045 net.cpp:410] pool3/3x3_s2_pool3/3x3_s2_0_split <- pool3/3x3_s2
I0714 14:17:11.020328  3045 net.cpp:368] pool3/3x3_s2_pool3/3x3_s2_0_split -> pool3/3x3_s2_pool3/3x3_s2_0_split_0
I0714 14:17:11.020335  3045 net.cpp:368] pool3/3x3_s2_pool3/3x3_s2_0_split -> pool3/3x3_s2_pool3/3x3_s2_0_split_1
I0714 14:17:11.020344  3045 net.cpp:368] pool3/3x3_s2_pool3/3x3_s2_0_split -> pool3/3x3_s2_pool3/3x3_s2_0_split_2
I0714 14:17:11.020352  3045 net.cpp:368] pool3/3x3_s2_pool3/3x3_s2_0_split -> pool3/3x3_s2_pool3/3x3_s2_0_split_3
I0714 14:17:11.020359  3045 net.cpp:120] Setting up pool3/3x3_s2_pool3/3x3_s2_0_split
I0714 14:17:11.020367  3045 net.cpp:127] Top shape: 10 480 14 14 (940800)
I0714 14:17:11.020375  3045 net.cpp:127] Top shape: 10 480 14 14 (940800)
I0714 14:17:11.020380  3045 net.cpp:127] Top shape: 10 480 14 14 (940800)
I0714 14:17:11.020385  3045 net.cpp:127] Top shape: 10 480 14 14 (940800)
I0714 14:17:11.020390  3045 layer_factory.hpp:74] Creating layer inception_4a/1x1
I0714 14:17:11.020401  3045 net.cpp:90] Creating Layer inception_4a/1x1
I0714 14:17:11.020407  3045 net.cpp:410] inception_4a/1x1 <- pool3/3x3_s2_pool3/3x3_s2_0_split_0
I0714 14:17:11.020417  3045 net.cpp:368] inception_4a/1x1 -> inception_4a/1x1
I0714 14:17:11.020426  3045 net.cpp:120] Setting up inception_4a/1x1
I0714 14:17:11.021226  3045 net.cpp:127] Top shape: 10 192 14 14 (376320)
I0714 14:17:11.021241  3045 layer_factory.hpp:74] Creating layer inception_4a/relu_1x1
I0714 14:17:11.021250  3045 net.cpp:90] Creating Layer inception_4a/relu_1x1
I0714 14:17:11.021255  3045 net.cpp:410] inception_4a/relu_1x1 <- inception_4a/1x1
I0714 14:17:11.021265  3045 net.cpp:357] inception_4a/relu_1x1 -> inception_4a/1x1 (in-place)
I0714 14:17:11.021273  3045 net.cpp:120] Setting up inception_4a/relu_1x1
I0714 14:17:11.021281  3045 net.cpp:127] Top shape: 10 192 14 14 (376320)
I0714 14:17:11.021286  3045 layer_factory.hpp:74] Creating layer inception_4a/3x3_reduce
I0714 14:17:11.021293  3045 net.cpp:90] Creating Layer inception_4a/3x3_reduce
I0714 14:17:11.021298  3045 net.cpp:410] inception_4a/3x3_reduce <- pool3/3x3_s2_pool3/3x3_s2_0_split_1
I0714 14:17:11.021309  3045 net.cpp:368] inception_4a/3x3_reduce -> inception_4a/3x3_reduce
I0714 14:17:11.021317  3045 net.cpp:120] Setting up inception_4a/3x3_reduce
I0714 14:17:11.021729  3045 net.cpp:127] Top shape: 10 96 14 14 (188160)
I0714 14:17:11.021744  3045 layer_factory.hpp:74] Creating layer inception_4a/relu_3x3_reduce
I0714 14:17:11.021755  3045 net.cpp:90] Creating Layer inception_4a/relu_3x3_reduce
I0714 14:17:11.021761  3045 net.cpp:410] inception_4a/relu_3x3_reduce <- inception_4a/3x3_reduce
I0714 14:17:11.021769  3045 net.cpp:357] inception_4a/relu_3x3_reduce -> inception_4a/3x3_reduce (in-place)
I0714 14:17:11.021776  3045 net.cpp:120] Setting up inception_4a/relu_3x3_reduce
I0714 14:17:11.021783  3045 net.cpp:127] Top shape: 10 96 14 14 (188160)
I0714 14:17:11.021788  3045 layer_factory.hpp:74] Creating layer inception_4a/3x3
I0714 14:17:11.021796  3045 net.cpp:90] Creating Layer inception_4a/3x3
I0714 14:17:11.021801  3045 net.cpp:410] inception_4a/3x3 <- inception_4a/3x3_reduce
I0714 14:17:11.021812  3045 net.cpp:368] inception_4a/3x3 -> inception_4a/3x3
I0714 14:17:11.021821  3045 net.cpp:120] Setting up inception_4a/3x3
I0714 14:17:11.023371  3045 net.cpp:127] Top shape: 10 208 14 14 (407680)
I0714 14:17:11.023385  3045 layer_factory.hpp:74] Creating layer inception_4a/relu_3x3
I0714 14:17:11.023392  3045 net.cpp:90] Creating Layer inception_4a/relu_3x3
I0714 14:17:11.023398  3045 net.cpp:410] inception_4a/relu_3x3 <- inception_4a/3x3
I0714 14:17:11.023407  3045 net.cpp:357] inception_4a/relu_3x3 -> inception_4a/3x3 (in-place)
I0714 14:17:11.023416  3045 net.cpp:120] Setting up inception_4a/relu_3x3
I0714 14:17:11.023422  3045 net.cpp:127] Top shape: 10 208 14 14 (407680)
I0714 14:17:11.023427  3045 layer_factory.hpp:74] Creating layer inception_4a/5x5_reduce
I0714 14:17:11.023435  3045 net.cpp:90] Creating Layer inception_4a/5x5_reduce
I0714 14:17:11.023442  3045 net.cpp:410] inception_4a/5x5_reduce <- pool3/3x3_s2_pool3/3x3_s2_0_split_2
I0714 14:17:11.023452  3045 net.cpp:368] inception_4a/5x5_reduce -> inception_4a/5x5_reduce
I0714 14:17:11.023460  3045 net.cpp:120] Setting up inception_4a/5x5_reduce
I0714 14:17:11.023538  3045 net.cpp:127] Top shape: 10 16 14 14 (31360)
I0714 14:17:11.023548  3045 layer_factory.hpp:74] Creating layer inception_4a/relu_5x5_reduce
I0714 14:17:11.023555  3045 net.cpp:90] Creating Layer inception_4a/relu_5x5_reduce
I0714 14:17:11.023561  3045 net.cpp:410] inception_4a/relu_5x5_reduce <- inception_4a/5x5_reduce
I0714 14:17:11.023567  3045 net.cpp:357] inception_4a/relu_5x5_reduce -> inception_4a/5x5_reduce (in-place)
I0714 14:17:11.023574  3045 net.cpp:120] Setting up inception_4a/relu_5x5_reduce
I0714 14:17:11.023581  3045 net.cpp:127] Top shape: 10 16 14 14 (31360)
I0714 14:17:11.023586  3045 layer_factory.hpp:74] Creating layer inception_4a/5x5
I0714 14:17:11.023596  3045 net.cpp:90] Creating Layer inception_4a/5x5
I0714 14:17:11.023602  3045 net.cpp:410] inception_4a/5x5 <- inception_4a/5x5_reduce
I0714 14:17:11.023612  3045 net.cpp:368] inception_4a/5x5 -> inception_4a/5x5
I0714 14:17:11.023619  3045 net.cpp:120] Setting up inception_4a/5x5
I0714 14:17:11.023802  3045 net.cpp:127] Top shape: 10 48 14 14 (94080)
I0714 14:17:11.023819  3045 layer_factory.hpp:74] Creating layer inception_4a/relu_5x5
I0714 14:17:11.023826  3045 net.cpp:90] Creating Layer inception_4a/relu_5x5
I0714 14:17:11.023833  3045 net.cpp:410] inception_4a/relu_5x5 <- inception_4a/5x5
I0714 14:17:11.023838  3045 net.cpp:357] inception_4a/relu_5x5 -> inception_4a/5x5 (in-place)
I0714 14:17:11.023846  3045 net.cpp:120] Setting up inception_4a/relu_5x5
I0714 14:17:11.023852  3045 net.cpp:127] Top shape: 10 48 14 14 (94080)
I0714 14:17:11.023857  3045 layer_factory.hpp:74] Creating layer inception_4a/pool
I0714 14:17:11.023867  3045 net.cpp:90] Creating Layer inception_4a/pool
I0714 14:17:11.023874  3045 net.cpp:410] inception_4a/pool <- pool3/3x3_s2_pool3/3x3_s2_0_split_3
I0714 14:17:11.023880  3045 net.cpp:368] inception_4a/pool -> inception_4a/pool
I0714 14:17:11.023888  3045 net.cpp:120] Setting up inception_4a/pool
I0714 14:17:11.023900  3045 net.cpp:127] Top shape: 10 480 14 14 (940800)
I0714 14:17:11.023905  3045 layer_factory.hpp:74] Creating layer inception_4a/pool_proj
I0714 14:17:11.023913  3045 net.cpp:90] Creating Layer inception_4a/pool_proj
I0714 14:17:11.023918  3045 net.cpp:410] inception_4a/pool_proj <- inception_4a/pool
I0714 14:17:11.023926  3045 net.cpp:368] inception_4a/pool_proj -> inception_4a/pool_proj
I0714 14:17:11.023936  3045 net.cpp:120] Setting up inception_4a/pool_proj
I0714 14:17:11.024216  3045 net.cpp:127] Top shape: 10 64 14 14 (125440)
I0714 14:17:11.024229  3045 layer_factory.hpp:74] Creating layer inception_4a/relu_pool_proj
I0714 14:17:11.024235  3045 net.cpp:90] Creating Layer inception_4a/relu_pool_proj
I0714 14:17:11.024241  3045 net.cpp:410] inception_4a/relu_pool_proj <- inception_4a/pool_proj
I0714 14:17:11.024248  3045 net.cpp:357] inception_4a/relu_pool_proj -> inception_4a/pool_proj (in-place)
I0714 14:17:11.024255  3045 net.cpp:120] Setting up inception_4a/relu_pool_proj
I0714 14:17:11.024261  3045 net.cpp:127] Top shape: 10 64 14 14 (125440)
I0714 14:17:11.024266  3045 layer_factory.hpp:74] Creating layer inception_4a/output
I0714 14:17:11.024273  3045 net.cpp:90] Creating Layer inception_4a/output
I0714 14:17:11.024278  3045 net.cpp:410] inception_4a/output <- inception_4a/1x1
I0714 14:17:11.024284  3045 net.cpp:410] inception_4a/output <- inception_4a/3x3
I0714 14:17:11.024291  3045 net.cpp:410] inception_4a/output <- inception_4a/5x5
I0714 14:17:11.024296  3045 net.cpp:410] inception_4a/output <- inception_4a/pool_proj
I0714 14:17:11.024307  3045 net.cpp:368] inception_4a/output -> inception_4a/output
I0714 14:17:11.024317  3045 net.cpp:120] Setting up inception_4a/output
I0714 14:17:11.024324  3045 net.cpp:127] Top shape: 10 512 14 14 (1003520)
I0714 14:17:11.024330  3045 layer_factory.hpp:74] Creating layer inception_4a/output_inception_4a/output_0_split
I0714 14:17:11.024338  3045 net.cpp:90] Creating Layer inception_4a/output_inception_4a/output_0_split
I0714 14:17:11.024343  3045 net.cpp:410] inception_4a/output_inception_4a/output_0_split <- inception_4a/output
I0714 14:17:11.024350  3045 net.cpp:368] inception_4a/output_inception_4a/output_0_split -> inception_4a/output_inception_4a/output_0_split_0
I0714 14:17:11.024361  3045 net.cpp:368] inception_4a/output_inception_4a/output_0_split -> inception_4a/output_inception_4a/output_0_split_1
I0714 14:17:11.024369  3045 net.cpp:368] inception_4a/output_inception_4a/output_0_split -> inception_4a/output_inception_4a/output_0_split_2
I0714 14:17:11.024379  3045 net.cpp:368] inception_4a/output_inception_4a/output_0_split -> inception_4a/output_inception_4a/output_0_split_3
I0714 14:17:11.024385  3045 net.cpp:120] Setting up inception_4a/output_inception_4a/output_0_split
I0714 14:17:11.024394  3045 net.cpp:127] Top shape: 10 512 14 14 (1003520)
I0714 14:17:11.024399  3045 net.cpp:127] Top shape: 10 512 14 14 (1003520)
I0714 14:17:11.024405  3045 net.cpp:127] Top shape: 10 512 14 14 (1003520)
I0714 14:17:11.024411  3045 net.cpp:127] Top shape: 10 512 14 14 (1003520)
I0714 14:17:11.024416  3045 layer_factory.hpp:74] Creating layer inception_4b/1x1
I0714 14:17:11.024431  3045 net.cpp:90] Creating Layer inception_4b/1x1
I0714 14:17:11.024438  3045 net.cpp:410] inception_4b/1x1 <- inception_4a/output_inception_4a/output_0_split_0
I0714 14:17:11.024446  3045 net.cpp:368] inception_4b/1x1 -> inception_4b/1x1
I0714 14:17:11.024456  3045 net.cpp:120] Setting up inception_4b/1x1
I0714 14:17:11.025163  3045 net.cpp:127] Top shape: 10 160 14 14 (313600)
I0714 14:17:11.025174  3045 layer_factory.hpp:74] Creating layer inception_4b/relu_1x1
I0714 14:17:11.025182  3045 net.cpp:90] Creating Layer inception_4b/relu_1x1
I0714 14:17:11.025188  3045 net.cpp:410] inception_4b/relu_1x1 <- inception_4b/1x1
I0714 14:17:11.025197  3045 net.cpp:357] inception_4b/relu_1x1 -> inception_4b/1x1 (in-place)
I0714 14:17:11.025205  3045 net.cpp:120] Setting up inception_4b/relu_1x1
I0714 14:17:11.025212  3045 net.cpp:127] Top shape: 10 160 14 14 (313600)
I0714 14:17:11.025218  3045 layer_factory.hpp:74] Creating layer inception_4b/3x3_reduce
I0714 14:17:11.025228  3045 net.cpp:90] Creating Layer inception_4b/3x3_reduce
I0714 14:17:11.025234  3045 net.cpp:410] inception_4b/3x3_reduce <- inception_4a/output_inception_4a/output_0_split_1
I0714 14:17:11.025243  3045 net.cpp:368] inception_4b/3x3_reduce -> inception_4b/3x3_reduce
I0714 14:17:11.025251  3045 net.cpp:120] Setting up inception_4b/3x3_reduce
I0714 14:17:11.025754  3045 net.cpp:127] Top shape: 10 112 14 14 (219520)
I0714 14:17:11.025765  3045 layer_factory.hpp:74] Creating layer inception_4b/relu_3x3_reduce
I0714 14:17:11.025774  3045 net.cpp:90] Creating Layer inception_4b/relu_3x3_reduce
I0714 14:17:11.025779  3045 net.cpp:410] inception_4b/relu_3x3_reduce <- inception_4b/3x3_reduce
I0714 14:17:11.025789  3045 net.cpp:357] inception_4b/relu_3x3_reduce -> inception_4b/3x3_reduce (in-place)
I0714 14:17:11.025795  3045 net.cpp:120] Setting up inception_4b/relu_3x3_reduce
I0714 14:17:11.025802  3045 net.cpp:127] Top shape: 10 112 14 14 (219520)
I0714 14:17:11.025807  3045 layer_factory.hpp:74] Creating layer inception_4b/3x3
I0714 14:17:11.025815  3045 net.cpp:90] Creating Layer inception_4b/3x3
I0714 14:17:11.025820  3045 net.cpp:410] inception_4b/3x3 <- inception_4b/3x3_reduce
I0714 14:17:11.025830  3045 net.cpp:368] inception_4b/3x3 -> inception_4b/3x3
I0714 14:17:11.025840  3045 net.cpp:120] Setting up inception_4b/3x3
I0714 14:17:11.027781  3045 net.cpp:127] Top shape: 10 224 14 14 (439040)
I0714 14:17:11.027793  3045 layer_factory.hpp:74] Creating layer inception_4b/relu_3x3
I0714 14:17:11.027801  3045 net.cpp:90] Creating Layer inception_4b/relu_3x3
I0714 14:17:11.027806  3045 net.cpp:410] inception_4b/relu_3x3 <- inception_4b/3x3
I0714 14:17:11.027815  3045 net.cpp:357] inception_4b/relu_3x3 -> inception_4b/3x3 (in-place)
I0714 14:17:11.027823  3045 net.cpp:120] Setting up inception_4b/relu_3x3
I0714 14:17:11.027830  3045 net.cpp:127] Top shape: 10 224 14 14 (439040)
I0714 14:17:11.027835  3045 layer_factory.hpp:74] Creating layer inception_4b/5x5_reduce
I0714 14:17:11.027842  3045 net.cpp:90] Creating Layer inception_4b/5x5_reduce
I0714 14:17:11.027848  3045 net.cpp:410] inception_4b/5x5_reduce <- inception_4a/output_inception_4a/output_0_split_2
I0714 14:17:11.027858  3045 net.cpp:368] inception_4b/5x5_reduce -> inception_4b/5x5_reduce
I0714 14:17:11.027868  3045 net.cpp:120] Setting up inception_4b/5x5_reduce
I0714 14:17:11.027990  3045 net.cpp:127] Top shape: 10 24 14 14 (47040)
I0714 14:17:11.028000  3045 layer_factory.hpp:74] Creating layer inception_4b/relu_5x5_reduce
I0714 14:17:11.028013  3045 net.cpp:90] Creating Layer inception_4b/relu_5x5_reduce
I0714 14:17:11.028020  3045 net.cpp:410] inception_4b/relu_5x5_reduce <- inception_4b/5x5_reduce
I0714 14:17:11.028028  3045 net.cpp:357] inception_4b/relu_5x5_reduce -> inception_4b/5x5_reduce (in-place)
I0714 14:17:11.028035  3045 net.cpp:120] Setting up inception_4b/relu_5x5_reduce
I0714 14:17:11.028041  3045 net.cpp:127] Top shape: 10 24 14 14 (47040)
I0714 14:17:11.028048  3045 layer_factory.hpp:74] Creating layer inception_4b/5x5
I0714 14:17:11.028058  3045 net.cpp:90] Creating Layer inception_4b/5x5
I0714 14:17:11.028069  3045 net.cpp:410] inception_4b/5x5 <- inception_4b/5x5_reduce
I0714 14:17:11.028076  3045 net.cpp:368] inception_4b/5x5 -> inception_4b/5x5
I0714 14:17:11.028085  3045 net.cpp:120] Setting up inception_4b/5x5
I0714 14:17:11.028434  3045 net.cpp:127] Top shape: 10 64 14 14 (125440)
I0714 14:17:11.028445  3045 layer_factory.hpp:74] Creating layer inception_4b/relu_5x5
I0714 14:17:11.028452  3045 net.cpp:90] Creating Layer inception_4b/relu_5x5
I0714 14:17:11.028457  3045 net.cpp:410] inception_4b/relu_5x5 <- inception_4b/5x5
I0714 14:17:11.028467  3045 net.cpp:357] inception_4b/relu_5x5 -> inception_4b/5x5 (in-place)
I0714 14:17:11.028475  3045 net.cpp:120] Setting up inception_4b/relu_5x5
I0714 14:17:11.028481  3045 net.cpp:127] Top shape: 10 64 14 14 (125440)
I0714 14:17:11.028486  3045 layer_factory.hpp:74] Creating layer inception_4b/pool
I0714 14:17:11.028493  3045 net.cpp:90] Creating Layer inception_4b/pool
I0714 14:17:11.028498  3045 net.cpp:410] inception_4b/pool <- inception_4a/output_inception_4a/output_0_split_3
I0714 14:17:11.028508  3045 net.cpp:368] inception_4b/pool -> inception_4b/pool
I0714 14:17:11.028517  3045 net.cpp:120] Setting up inception_4b/pool
I0714 14:17:11.028525  3045 net.cpp:127] Top shape: 10 512 14 14 (1003520)
I0714 14:17:11.028532  3045 layer_factory.hpp:74] Creating layer inception_4b/pool_proj
I0714 14:17:11.028538  3045 net.cpp:90] Creating Layer inception_4b/pool_proj
I0714 14:17:11.028544  3045 net.cpp:410] inception_4b/pool_proj <- inception_4b/pool
I0714 14:17:11.028554  3045 net.cpp:368] inception_4b/pool_proj -> inception_4b/pool_proj
I0714 14:17:11.028563  3045 net.cpp:120] Setting up inception_4b/pool_proj
I0714 14:17:11.028856  3045 net.cpp:127] Top shape: 10 64 14 14 (125440)
I0714 14:17:11.028867  3045 layer_factory.hpp:74] Creating layer inception_4b/relu_pool_proj
I0714 14:17:11.028874  3045 net.cpp:90] Creating Layer inception_4b/relu_pool_proj
I0714 14:17:11.028880  3045 net.cpp:410] inception_4b/relu_pool_proj <- inception_4b/pool_proj
I0714 14:17:11.028887  3045 net.cpp:357] inception_4b/relu_pool_proj -> inception_4b/pool_proj (in-place)
I0714 14:17:11.028894  3045 net.cpp:120] Setting up inception_4b/relu_pool_proj
I0714 14:17:11.028902  3045 net.cpp:127] Top shape: 10 64 14 14 (125440)
I0714 14:17:11.028906  3045 layer_factory.hpp:74] Creating layer inception_4b/output
I0714 14:17:11.028913  3045 net.cpp:90] Creating Layer inception_4b/output
I0714 14:17:11.028918  3045 net.cpp:410] inception_4b/output <- inception_4b/1x1
I0714 14:17:11.028924  3045 net.cpp:410] inception_4b/output <- inception_4b/3x3
I0714 14:17:11.028930  3045 net.cpp:410] inception_4b/output <- inception_4b/5x5
I0714 14:17:11.028936  3045 net.cpp:410] inception_4b/output <- inception_4b/pool_proj
I0714 14:17:11.028945  3045 net.cpp:368] inception_4b/output -> inception_4b/output
I0714 14:17:11.028954  3045 net.cpp:120] Setting up inception_4b/output
I0714 14:17:11.028962  3045 net.cpp:127] Top shape: 10 512 14 14 (1003520)
I0714 14:17:11.028967  3045 layer_factory.hpp:74] Creating layer inception_4b/output_inception_4b/output_0_split
I0714 14:17:11.028975  3045 net.cpp:90] Creating Layer inception_4b/output_inception_4b/output_0_split
I0714 14:17:11.028980  3045 net.cpp:410] inception_4b/output_inception_4b/output_0_split <- inception_4b/output
I0714 14:17:11.028988  3045 net.cpp:368] inception_4b/output_inception_4b/output_0_split -> inception_4b/output_inception_4b/output_0_split_0
I0714 14:17:11.028997  3045 net.cpp:368] inception_4b/output_inception_4b/output_0_split -> inception_4b/output_inception_4b/output_0_split_1
I0714 14:17:11.029011  3045 net.cpp:368] inception_4b/output_inception_4b/output_0_split -> inception_4b/output_inception_4b/output_0_split_2
I0714 14:17:11.029019  3045 net.cpp:368] inception_4b/output_inception_4b/output_0_split -> inception_4b/output_inception_4b/output_0_split_3
I0714 14:17:11.029026  3045 net.cpp:120] Setting up inception_4b/output_inception_4b/output_0_split
I0714 14:17:11.029034  3045 net.cpp:127] Top shape: 10 512 14 14 (1003520)
I0714 14:17:11.029047  3045 net.cpp:127] Top shape: 10 512 14 14 (1003520)
I0714 14:17:11.029052  3045 net.cpp:127] Top shape: 10 512 14 14 (1003520)
I0714 14:17:11.029058  3045 net.cpp:127] Top shape: 10 512 14 14 (1003520)
I0714 14:17:11.029063  3045 layer_factory.hpp:74] Creating layer inception_4c/1x1
I0714 14:17:11.029075  3045 net.cpp:90] Creating Layer inception_4c/1x1
I0714 14:17:11.029083  3045 net.cpp:410] inception_4c/1x1 <- inception_4b/output_inception_4b/output_0_split_0
I0714 14:17:11.029093  3045 net.cpp:368] inception_4c/1x1 -> inception_4c/1x1
I0714 14:17:11.029101  3045 net.cpp:120] Setting up inception_4c/1x1
I0714 14:17:11.029672  3045 net.cpp:127] Top shape: 10 128 14 14 (250880)
I0714 14:17:11.029685  3045 layer_factory.hpp:74] Creating layer inception_4c/relu_1x1
I0714 14:17:11.029695  3045 net.cpp:90] Creating Layer inception_4c/relu_1x1
I0714 14:17:11.029700  3045 net.cpp:410] inception_4c/relu_1x1 <- inception_4c/1x1
I0714 14:17:11.029707  3045 net.cpp:357] inception_4c/relu_1x1 -> inception_4c/1x1 (in-place)
I0714 14:17:11.029714  3045 net.cpp:120] Setting up inception_4c/relu_1x1
I0714 14:17:11.029721  3045 net.cpp:127] Top shape: 10 128 14 14 (250880)
I0714 14:17:11.029726  3045 layer_factory.hpp:74] Creating layer inception_4c/3x3_reduce
I0714 14:17:11.029736  3045 net.cpp:90] Creating Layer inception_4c/3x3_reduce
I0714 14:17:11.029742  3045 net.cpp:410] inception_4c/3x3_reduce <- inception_4b/output_inception_4b/output_0_split_1
I0714 14:17:11.029750  3045 net.cpp:368] inception_4c/3x3_reduce -> inception_4c/3x3_reduce
I0714 14:17:11.029758  3045 net.cpp:120] Setting up inception_4c/3x3_reduce
I0714 14:17:11.030344  3045 net.cpp:127] Top shape: 10 128 14 14 (250880)
I0714 14:17:11.030360  3045 layer_factory.hpp:74] Creating layer inception_4c/relu_3x3_reduce
I0714 14:17:11.030367  3045 net.cpp:90] Creating Layer inception_4c/relu_3x3_reduce
I0714 14:17:11.030374  3045 net.cpp:410] inception_4c/relu_3x3_reduce <- inception_4c/3x3_reduce
I0714 14:17:11.030380  3045 net.cpp:357] inception_4c/relu_3x3_reduce -> inception_4c/3x3_reduce (in-place)
I0714 14:17:11.030387  3045 net.cpp:120] Setting up inception_4c/relu_3x3_reduce
I0714 14:17:11.030395  3045 net.cpp:127] Top shape: 10 128 14 14 (250880)
I0714 14:17:11.030400  3045 layer_factory.hpp:74] Creating layer inception_4c/3x3
I0714 14:17:11.030407  3045 net.cpp:90] Creating Layer inception_4c/3x3
I0714 14:17:11.030412  3045 net.cpp:410] inception_4c/3x3 <- inception_4c/3x3_reduce
I0714 14:17:11.030423  3045 net.cpp:368] inception_4c/3x3 -> inception_4c/3x3
I0714 14:17:11.030431  3045 net.cpp:120] Setting up inception_4c/3x3
I0714 14:17:11.032944  3045 net.cpp:127] Top shape: 10 256 14 14 (501760)
I0714 14:17:11.032956  3045 layer_factory.hpp:74] Creating layer inception_4c/relu_3x3
I0714 14:17:11.032963  3045 net.cpp:90] Creating Layer inception_4c/relu_3x3
I0714 14:17:11.032969  3045 net.cpp:410] inception_4c/relu_3x3 <- inception_4c/3x3
I0714 14:17:11.032979  3045 net.cpp:357] inception_4c/relu_3x3 -> inception_4c/3x3 (in-place)
I0714 14:17:11.032986  3045 net.cpp:120] Setting up inception_4c/relu_3x3
I0714 14:17:11.032994  3045 net.cpp:127] Top shape: 10 256 14 14 (501760)
I0714 14:17:11.032999  3045 layer_factory.hpp:74] Creating layer inception_4c/5x5_reduce
I0714 14:17:11.033009  3045 net.cpp:90] Creating Layer inception_4c/5x5_reduce
I0714 14:17:11.033015  3045 net.cpp:410] inception_4c/5x5_reduce <- inception_4b/output_inception_4b/output_0_split_2
I0714 14:17:11.033022  3045 net.cpp:368] inception_4c/5x5_reduce -> inception_4c/5x5_reduce
I0714 14:17:11.033038  3045 net.cpp:120] Setting up inception_4c/5x5_reduce
I0714 14:17:11.033159  3045 net.cpp:127] Top shape: 10 24 14 14 (47040)
I0714 14:17:11.033169  3045 layer_factory.hpp:74] Creating layer inception_4c/relu_5x5_reduce
I0714 14:17:11.033175  3045 net.cpp:90] Creating Layer inception_4c/relu_5x5_reduce
I0714 14:17:11.033181  3045 net.cpp:410] inception_4c/relu_5x5_reduce <- inception_4c/5x5_reduce
I0714 14:17:11.033188  3045 net.cpp:357] inception_4c/relu_5x5_reduce -> inception_4c/5x5_reduce (in-place)
I0714 14:17:11.033200  3045 net.cpp:120] Setting up inception_4c/relu_5x5_reduce
I0714 14:17:11.033207  3045 net.cpp:127] Top shape: 10 24 14 14 (47040)
I0714 14:17:11.033216  3045 layer_factory.hpp:74] Creating layer inception_4c/5x5
I0714 14:17:11.033228  3045 net.cpp:90] Creating Layer inception_4c/5x5
I0714 14:17:11.033234  3045 net.cpp:410] inception_4c/5x5 <- inception_4c/5x5_reduce
I0714 14:17:11.033244  3045 net.cpp:368] inception_4c/5x5 -> inception_4c/5x5
I0714 14:17:11.033253  3045 net.cpp:120] Setting up inception_4c/5x5
I0714 14:17:11.033603  3045 net.cpp:127] Top shape: 10 64 14 14 (125440)
I0714 14:17:11.033615  3045 layer_factory.hpp:74] Creating layer inception_4c/relu_5x5
I0714 14:17:11.033622  3045 net.cpp:90] Creating Layer inception_4c/relu_5x5
I0714 14:17:11.033628  3045 net.cpp:410] inception_4c/relu_5x5 <- inception_4c/5x5
I0714 14:17:11.033634  3045 net.cpp:357] inception_4c/relu_5x5 -> inception_4c/5x5 (in-place)
I0714 14:17:11.033642  3045 net.cpp:120] Setting up inception_4c/relu_5x5
I0714 14:17:11.033648  3045 net.cpp:127] Top shape: 10 64 14 14 (125440)
I0714 14:17:11.033653  3045 layer_factory.hpp:74] Creating layer inception_4c/pool
I0714 14:17:11.033660  3045 net.cpp:90] Creating Layer inception_4c/pool
I0714 14:17:11.033666  3045 net.cpp:410] inception_4c/pool <- inception_4b/output_inception_4b/output_0_split_3
I0714 14:17:11.033676  3045 net.cpp:368] inception_4c/pool -> inception_4c/pool
I0714 14:17:11.033684  3045 net.cpp:120] Setting up inception_4c/pool
I0714 14:17:11.033694  3045 net.cpp:127] Top shape: 10 512 14 14 (1003520)
I0714 14:17:11.033699  3045 layer_factory.hpp:74] Creating layer inception_4c/pool_proj
I0714 14:17:11.033709  3045 net.cpp:90] Creating Layer inception_4c/pool_proj
I0714 14:17:11.033715  3045 net.cpp:410] inception_4c/pool_proj <- inception_4c/pool
I0714 14:17:11.033722  3045 net.cpp:368] inception_4c/pool_proj -> inception_4c/pool_proj
I0714 14:17:11.033731  3045 net.cpp:120] Setting up inception_4c/pool_proj
I0714 14:17:11.034035  3045 net.cpp:127] Top shape: 10 64 14 14 (125440)
I0714 14:17:11.034055  3045 layer_factory.hpp:74] Creating layer inception_4c/relu_pool_proj
I0714 14:17:11.034065  3045 net.cpp:90] Creating Layer inception_4c/relu_pool_proj
I0714 14:17:11.034071  3045 net.cpp:410] inception_4c/relu_pool_proj <- inception_4c/pool_proj
I0714 14:17:11.034078  3045 net.cpp:357] inception_4c/relu_pool_proj -> inception_4c/pool_proj (in-place)
I0714 14:17:11.034086  3045 net.cpp:120] Setting up inception_4c/relu_pool_proj
I0714 14:17:11.034093  3045 net.cpp:127] Top shape: 10 64 14 14 (125440)
I0714 14:17:11.034098  3045 layer_factory.hpp:74] Creating layer inception_4c/output
I0714 14:17:11.034106  3045 net.cpp:90] Creating Layer inception_4c/output
I0714 14:17:11.034111  3045 net.cpp:410] inception_4c/output <- inception_4c/1x1
I0714 14:17:11.034116  3045 net.cpp:410] inception_4c/output <- inception_4c/3x3
I0714 14:17:11.034122  3045 net.cpp:410] inception_4c/output <- inception_4c/5x5
I0714 14:17:11.034128  3045 net.cpp:410] inception_4c/output <- inception_4c/pool_proj
I0714 14:17:11.034135  3045 net.cpp:368] inception_4c/output -> inception_4c/output
I0714 14:17:11.034147  3045 net.cpp:120] Setting up inception_4c/output
I0714 14:17:11.034154  3045 net.cpp:127] Top shape: 10 512 14 14 (1003520)
I0714 14:17:11.034160  3045 layer_factory.hpp:74] Creating layer inception_4c/output_inception_4c/output_0_split
I0714 14:17:11.034167  3045 net.cpp:90] Creating Layer inception_4c/output_inception_4c/output_0_split
I0714 14:17:11.034173  3045 net.cpp:410] inception_4c/output_inception_4c/output_0_split <- inception_4c/output
I0714 14:17:11.034179  3045 net.cpp:368] inception_4c/output_inception_4c/output_0_split -> inception_4c/output_inception_4c/output_0_split_0
I0714 14:17:11.034188  3045 net.cpp:368] inception_4c/output_inception_4c/output_0_split -> inception_4c/output_inception_4c/output_0_split_1
I0714 14:17:11.034195  3045 net.cpp:368] inception_4c/output_inception_4c/output_0_split -> inception_4c/output_inception_4c/output_0_split_2
I0714 14:17:11.034209  3045 net.cpp:368] inception_4c/output_inception_4c/output_0_split -> inception_4c/output_inception_4c/output_0_split_3
I0714 14:17:11.034216  3045 net.cpp:120] Setting up inception_4c/output_inception_4c/output_0_split
I0714 14:17:11.034227  3045 net.cpp:127] Top shape: 10 512 14 14 (1003520)
I0714 14:17:11.034235  3045 net.cpp:127] Top shape: 10 512 14 14 (1003520)
I0714 14:17:11.034240  3045 net.cpp:127] Top shape: 10 512 14 14 (1003520)
I0714 14:17:11.034246  3045 net.cpp:127] Top shape: 10 512 14 14 (1003520)
I0714 14:17:11.034251  3045 layer_factory.hpp:74] Creating layer inception_4d/1x1
I0714 14:17:11.034260  3045 net.cpp:90] Creating Layer inception_4d/1x1
I0714 14:17:11.034268  3045 net.cpp:410] inception_4d/1x1 <- inception_4c/output_inception_4c/output_0_split_0
I0714 14:17:11.034279  3045 net.cpp:368] inception_4d/1x1 -> inception_4d/1x1
I0714 14:17:11.034288  3045 net.cpp:120] Setting up inception_4d/1x1
I0714 14:17:11.034790  3045 net.cpp:127] Top shape: 10 112 14 14 (219520)
I0714 14:17:11.034802  3045 layer_factory.hpp:74] Creating layer inception_4d/relu_1x1
I0714 14:17:11.034809  3045 net.cpp:90] Creating Layer inception_4d/relu_1x1
I0714 14:17:11.034816  3045 net.cpp:410] inception_4d/relu_1x1 <- inception_4d/1x1
I0714 14:17:11.034824  3045 net.cpp:357] inception_4d/relu_1x1 -> inception_4d/1x1 (in-place)
I0714 14:17:11.034832  3045 net.cpp:120] Setting up inception_4d/relu_1x1
I0714 14:17:11.034839  3045 net.cpp:127] Top shape: 10 112 14 14 (219520)
I0714 14:17:11.034844  3045 layer_factory.hpp:74] Creating layer inception_4d/3x3_reduce
I0714 14:17:11.034852  3045 net.cpp:90] Creating Layer inception_4d/3x3_reduce
I0714 14:17:11.034857  3045 net.cpp:410] inception_4d/3x3_reduce <- inception_4c/output_inception_4c/output_0_split_1
I0714 14:17:11.034868  3045 net.cpp:368] inception_4d/3x3_reduce -> inception_4d/3x3_reduce
I0714 14:17:11.034876  3045 net.cpp:120] Setting up inception_4d/3x3_reduce
I0714 14:17:11.035521  3045 net.cpp:127] Top shape: 10 144 14 14 (282240)
I0714 14:17:11.035533  3045 layer_factory.hpp:74] Creating layer inception_4d/relu_3x3_reduce
I0714 14:17:11.035540  3045 net.cpp:90] Creating Layer inception_4d/relu_3x3_reduce
I0714 14:17:11.035545  3045 net.cpp:410] inception_4d/relu_3x3_reduce <- inception_4d/3x3_reduce
I0714 14:17:11.035552  3045 net.cpp:357] inception_4d/relu_3x3_reduce -> inception_4d/3x3_reduce (in-place)
I0714 14:17:11.035559  3045 net.cpp:120] Setting up inception_4d/relu_3x3_reduce
I0714 14:17:11.035567  3045 net.cpp:127] Top shape: 10 144 14 14 (282240)
I0714 14:17:11.035572  3045 layer_factory.hpp:74] Creating layer inception_4d/3x3
I0714 14:17:11.035581  3045 net.cpp:90] Creating Layer inception_4d/3x3
I0714 14:17:11.035588  3045 net.cpp:410] inception_4d/3x3 <- inception_4d/3x3_reduce
I0714 14:17:11.035598  3045 net.cpp:368] inception_4d/3x3 -> inception_4d/3x3
I0714 14:17:11.035609  3045 net.cpp:120] Setting up inception_4d/3x3
I0714 14:17:11.038795  3045 net.cpp:127] Top shape: 10 288 14 14 (564480)
I0714 14:17:11.038810  3045 layer_factory.hpp:74] Creating layer inception_4d/relu_3x3
I0714 14:17:11.038816  3045 net.cpp:90] Creating Layer inception_4d/relu_3x3
I0714 14:17:11.038822  3045 net.cpp:410] inception_4d/relu_3x3 <- inception_4d/3x3
I0714 14:17:11.038830  3045 net.cpp:357] inception_4d/relu_3x3 -> inception_4d/3x3 (in-place)
I0714 14:17:11.038836  3045 net.cpp:120] Setting up inception_4d/relu_3x3
I0714 14:17:11.038843  3045 net.cpp:127] Top shape: 10 288 14 14 (564480)
I0714 14:17:11.038848  3045 layer_factory.hpp:74] Creating layer inception_4d/5x5_reduce
I0714 14:17:11.038858  3045 net.cpp:90] Creating Layer inception_4d/5x5_reduce
I0714 14:17:11.038864  3045 net.cpp:410] inception_4d/5x5_reduce <- inception_4c/output_inception_4c/output_0_split_2
I0714 14:17:11.038875  3045 net.cpp:368] inception_4d/5x5_reduce -> inception_4d/5x5_reduce
I0714 14:17:11.038884  3045 net.cpp:120] Setting up inception_4d/5x5_reduce
I0714 14:17:11.039039  3045 net.cpp:127] Top shape: 10 32 14 14 (62720)
I0714 14:17:11.039054  3045 layer_factory.hpp:74] Creating layer inception_4d/relu_5x5_reduce
I0714 14:17:11.039063  3045 net.cpp:90] Creating Layer inception_4d/relu_5x5_reduce
I0714 14:17:11.039069  3045 net.cpp:410] inception_4d/relu_5x5_reduce <- inception_4d/5x5_reduce
I0714 14:17:11.039077  3045 net.cpp:357] inception_4d/relu_5x5_reduce -> inception_4d/5x5_reduce (in-place)
I0714 14:17:11.039083  3045 net.cpp:120] Setting up inception_4d/relu_5x5_reduce
I0714 14:17:11.039090  3045 net.cpp:127] Top shape: 10 32 14 14 (62720)
I0714 14:17:11.039095  3045 layer_factory.hpp:74] Creating layer inception_4d/5x5
I0714 14:17:11.039105  3045 net.cpp:90] Creating Layer inception_4d/5x5
I0714 14:17:11.039111  3045 net.cpp:410] inception_4d/5x5 <- inception_4d/5x5_reduce
I0714 14:17:11.039119  3045 net.cpp:368] inception_4d/5x5 -> inception_4d/5x5
I0714 14:17:11.039127  3045 net.cpp:120] Setting up inception_4d/5x5
I0714 14:17:11.039578  3045 net.cpp:127] Top shape: 10 64 14 14 (125440)
I0714 14:17:11.039589  3045 layer_factory.hpp:74] Creating layer inception_4d/relu_5x5
I0714 14:17:11.039597  3045 net.cpp:90] Creating Layer inception_4d/relu_5x5
I0714 14:17:11.039605  3045 net.cpp:410] inception_4d/relu_5x5 <- inception_4d/5x5
I0714 14:17:11.039613  3045 net.cpp:357] inception_4d/relu_5x5 -> inception_4d/5x5 (in-place)
I0714 14:17:11.039619  3045 net.cpp:120] Setting up inception_4d/relu_5x5
I0714 14:17:11.039626  3045 net.cpp:127] Top shape: 10 64 14 14 (125440)
I0714 14:17:11.039631  3045 layer_factory.hpp:74] Creating layer inception_4d/pool
I0714 14:17:11.039638  3045 net.cpp:90] Creating Layer inception_4d/pool
I0714 14:17:11.039644  3045 net.cpp:410] inception_4d/pool <- inception_4c/output_inception_4c/output_0_split_3
I0714 14:17:11.039651  3045 net.cpp:368] inception_4d/pool -> inception_4d/pool
I0714 14:17:11.039659  3045 net.cpp:120] Setting up inception_4d/pool
I0714 14:17:11.039667  3045 net.cpp:127] Top shape: 10 512 14 14 (1003520)
I0714 14:17:11.039674  3045 layer_factory.hpp:74] Creating layer inception_4d/pool_proj
I0714 14:17:11.039685  3045 net.cpp:90] Creating Layer inception_4d/pool_proj
I0714 14:17:11.039690  3045 net.cpp:410] inception_4d/pool_proj <- inception_4d/pool
I0714 14:17:11.039702  3045 net.cpp:368] inception_4d/pool_proj -> inception_4d/pool_proj
I0714 14:17:11.039710  3045 net.cpp:120] Setting up inception_4d/pool_proj
I0714 14:17:11.040009  3045 net.cpp:127] Top shape: 10 64 14 14 (125440)
I0714 14:17:11.040021  3045 layer_factory.hpp:74] Creating layer inception_4d/relu_pool_proj
I0714 14:17:11.040030  3045 net.cpp:90] Creating Layer inception_4d/relu_pool_proj
I0714 14:17:11.040035  3045 net.cpp:410] inception_4d/relu_pool_proj <- inception_4d/pool_proj
I0714 14:17:11.040041  3045 net.cpp:357] inception_4d/relu_pool_proj -> inception_4d/pool_proj (in-place)
I0714 14:17:11.040051  3045 net.cpp:120] Setting up inception_4d/relu_pool_proj
I0714 14:17:11.040058  3045 net.cpp:127] Top shape: 10 64 14 14 (125440)
I0714 14:17:11.040063  3045 layer_factory.hpp:74] Creating layer inception_4d/output
I0714 14:17:11.040071  3045 net.cpp:90] Creating Layer inception_4d/output
I0714 14:17:11.040076  3045 net.cpp:410] inception_4d/output <- inception_4d/1x1
I0714 14:17:11.040081  3045 net.cpp:410] inception_4d/output <- inception_4d/3x3
I0714 14:17:11.040087  3045 net.cpp:410] inception_4d/output <- inception_4d/5x5
I0714 14:17:11.040092  3045 net.cpp:410] inception_4d/output <- inception_4d/pool_proj
I0714 14:17:11.040099  3045 net.cpp:368] inception_4d/output -> inception_4d/output
I0714 14:17:11.040107  3045 net.cpp:120] Setting up inception_4d/output
I0714 14:17:11.040115  3045 net.cpp:127] Top shape: 10 528 14 14 (1034880)
I0714 14:17:11.040120  3045 layer_factory.hpp:74] Creating layer inception_4d/output_inception_4d/output_0_split
I0714 14:17:11.040127  3045 net.cpp:90] Creating Layer inception_4d/output_inception_4d/output_0_split
I0714 14:17:11.040132  3045 net.cpp:410] inception_4d/output_inception_4d/output_0_split <- inception_4d/output
I0714 14:17:11.040141  3045 net.cpp:368] inception_4d/output_inception_4d/output_0_split -> inception_4d/output_inception_4d/output_0_split_0
I0714 14:17:11.040155  3045 net.cpp:368] inception_4d/output_inception_4d/output_0_split -> inception_4d/output_inception_4d/output_0_split_1
I0714 14:17:11.040164  3045 net.cpp:368] inception_4d/output_inception_4d/output_0_split -> inception_4d/output_inception_4d/output_0_split_2
I0714 14:17:11.040174  3045 net.cpp:368] inception_4d/output_inception_4d/output_0_split -> inception_4d/output_inception_4d/output_0_split_3
I0714 14:17:11.040180  3045 net.cpp:120] Setting up inception_4d/output_inception_4d/output_0_split
I0714 14:17:11.040189  3045 net.cpp:127] Top shape: 10 528 14 14 (1034880)
I0714 14:17:11.040194  3045 net.cpp:127] Top shape: 10 528 14 14 (1034880)
I0714 14:17:11.040200  3045 net.cpp:127] Top shape: 10 528 14 14 (1034880)
I0714 14:17:11.040206  3045 net.cpp:127] Top shape: 10 528 14 14 (1034880)
I0714 14:17:11.040211  3045 layer_factory.hpp:74] Creating layer inception_4e/1x1
I0714 14:17:11.040221  3045 net.cpp:90] Creating Layer inception_4e/1x1
I0714 14:17:11.040227  3045 net.cpp:410] inception_4e/1x1 <- inception_4d/output_inception_4d/output_0_split_0
I0714 14:17:11.040235  3045 net.cpp:368] inception_4e/1x1 -> inception_4e/1x1
I0714 14:17:11.040243  3045 net.cpp:120] Setting up inception_4e/1x1
I0714 14:17:11.041402  3045 net.cpp:127] Top shape: 10 256 14 14 (501760)
I0714 14:17:11.041414  3045 layer_factory.hpp:74] Creating layer inception_4e/relu_1x1
I0714 14:17:11.041421  3045 net.cpp:90] Creating Layer inception_4e/relu_1x1
I0714 14:17:11.041427  3045 net.cpp:410] inception_4e/relu_1x1 <- inception_4e/1x1
I0714 14:17:11.041435  3045 net.cpp:357] inception_4e/relu_1x1 -> inception_4e/1x1 (in-place)
I0714 14:17:11.041441  3045 net.cpp:120] Setting up inception_4e/relu_1x1
I0714 14:17:11.041447  3045 net.cpp:127] Top shape: 10 256 14 14 (501760)
I0714 14:17:11.041453  3045 layer_factory.hpp:74] Creating layer inception_4e/3x3_reduce
I0714 14:17:11.041463  3045 net.cpp:90] Creating Layer inception_4e/3x3_reduce
I0714 14:17:11.041470  3045 net.cpp:410] inception_4e/3x3_reduce <- inception_4d/output_inception_4d/output_0_split_1
I0714 14:17:11.041479  3045 net.cpp:368] inception_4e/3x3_reduce -> inception_4e/3x3_reduce
I0714 14:17:11.041488  3045 net.cpp:120] Setting up inception_4e/3x3_reduce
I0714 14:17:11.042234  3045 net.cpp:127] Top shape: 10 160 14 14 (313600)
I0714 14:17:11.042246  3045 layer_factory.hpp:74] Creating layer inception_4e/relu_3x3_reduce
I0714 14:17:11.042254  3045 net.cpp:90] Creating Layer inception_4e/relu_3x3_reduce
I0714 14:17:11.042259  3045 net.cpp:410] inception_4e/relu_3x3_reduce <- inception_4e/3x3_reduce
I0714 14:17:11.042266  3045 net.cpp:357] inception_4e/relu_3x3_reduce -> inception_4e/3x3_reduce (in-place)
I0714 14:17:11.042273  3045 net.cpp:120] Setting up inception_4e/relu_3x3_reduce
I0714 14:17:11.042280  3045 net.cpp:127] Top shape: 10 160 14 14 (313600)
I0714 14:17:11.042285  3045 layer_factory.hpp:74] Creating layer inception_4e/3x3
I0714 14:17:11.042295  3045 net.cpp:90] Creating Layer inception_4e/3x3
I0714 14:17:11.042301  3045 net.cpp:410] inception_4e/3x3 <- inception_4e/3x3_reduce
I0714 14:17:11.042311  3045 net.cpp:368] inception_4e/3x3 -> inception_4e/3x3
I0714 14:17:11.042320  3045 net.cpp:120] Setting up inception_4e/3x3
I0714 14:17:11.046123  3045 net.cpp:127] Top shape: 10 320 14 14 (627200)
I0714 14:17:11.046139  3045 layer_factory.hpp:74] Creating layer inception_4e/relu_3x3
I0714 14:17:11.046146  3045 net.cpp:90] Creating Layer inception_4e/relu_3x3
I0714 14:17:11.046152  3045 net.cpp:410] inception_4e/relu_3x3 <- inception_4e/3x3
I0714 14:17:11.046161  3045 net.cpp:357] inception_4e/relu_3x3 -> inception_4e/3x3 (in-place)
I0714 14:17:11.046169  3045 net.cpp:120] Setting up inception_4e/relu_3x3
I0714 14:17:11.046176  3045 net.cpp:127] Top shape: 10 320 14 14 (627200)
I0714 14:17:11.046181  3045 layer_factory.hpp:74] Creating layer inception_4e/5x5_reduce
I0714 14:17:11.046190  3045 net.cpp:90] Creating Layer inception_4e/5x5_reduce
I0714 14:17:11.046195  3045 net.cpp:410] inception_4e/5x5_reduce <- inception_4d/output_inception_4d/output_0_split_2
I0714 14:17:11.046211  3045 net.cpp:368] inception_4e/5x5_reduce -> inception_4e/5x5_reduce
I0714 14:17:11.046219  3045 net.cpp:120] Setting up inception_4e/5x5_reduce
I0714 14:17:11.046371  3045 net.cpp:127] Top shape: 10 32 14 14 (62720)
I0714 14:17:11.046381  3045 layer_factory.hpp:74] Creating layer inception_4e/relu_5x5_reduce
I0714 14:17:11.046391  3045 net.cpp:90] Creating Layer inception_4e/relu_5x5_reduce
I0714 14:17:11.046396  3045 net.cpp:410] inception_4e/relu_5x5_reduce <- inception_4e/5x5_reduce
I0714 14:17:11.046403  3045 net.cpp:357] inception_4e/relu_5x5_reduce -> inception_4e/5x5_reduce (in-place)
I0714 14:17:11.046411  3045 net.cpp:120] Setting up inception_4e/relu_5x5_reduce
I0714 14:17:11.046417  3045 net.cpp:127] Top shape: 10 32 14 14 (62720)
I0714 14:17:11.046422  3045 layer_factory.hpp:74] Creating layer inception_4e/5x5
I0714 14:17:11.046432  3045 net.cpp:90] Creating Layer inception_4e/5x5
I0714 14:17:11.046437  3045 net.cpp:410] inception_4e/5x5 <- inception_4e/5x5_reduce
I0714 14:17:11.046445  3045 net.cpp:368] inception_4e/5x5 -> inception_4e/5x5
I0714 14:17:11.046453  3045 net.cpp:120] Setting up inception_4e/5x5
I0714 14:17:11.047303  3045 net.cpp:127] Top shape: 10 128 14 14 (250880)
I0714 14:17:11.047315  3045 layer_factory.hpp:74] Creating layer inception_4e/relu_5x5
I0714 14:17:11.047325  3045 net.cpp:90] Creating Layer inception_4e/relu_5x5
I0714 14:17:11.047332  3045 net.cpp:410] inception_4e/relu_5x5 <- inception_4e/5x5
I0714 14:17:11.047338  3045 net.cpp:357] inception_4e/relu_5x5 -> inception_4e/5x5 (in-place)
I0714 14:17:11.047345  3045 net.cpp:120] Setting up inception_4e/relu_5x5
I0714 14:17:11.047353  3045 net.cpp:127] Top shape: 10 128 14 14 (250880)
I0714 14:17:11.047358  3045 layer_factory.hpp:74] Creating layer inception_4e/pool
I0714 14:17:11.047364  3045 net.cpp:90] Creating Layer inception_4e/pool
I0714 14:17:11.047370  3045 net.cpp:410] inception_4e/pool <- inception_4d/output_inception_4d/output_0_split_3
I0714 14:17:11.047377  3045 net.cpp:368] inception_4e/pool -> inception_4e/pool
I0714 14:17:11.047385  3045 net.cpp:120] Setting up inception_4e/pool
I0714 14:17:11.047394  3045 net.cpp:127] Top shape: 10 528 14 14 (1034880)
I0714 14:17:11.047400  3045 layer_factory.hpp:74] Creating layer inception_4e/pool_proj
I0714 14:17:11.047410  3045 net.cpp:90] Creating Layer inception_4e/pool_proj
I0714 14:17:11.047416  3045 net.cpp:410] inception_4e/pool_proj <- inception_4e/pool
I0714 14:17:11.047426  3045 net.cpp:368] inception_4e/pool_proj -> inception_4e/pool_proj
I0714 14:17:11.047435  3045 net.cpp:120] Setting up inception_4e/pool_proj
I0714 14:17:11.048003  3045 net.cpp:127] Top shape: 10 128 14 14 (250880)
I0714 14:17:11.048017  3045 layer_factory.hpp:74] Creating layer inception_4e/relu_pool_proj
I0714 14:17:11.048025  3045 net.cpp:90] Creating Layer inception_4e/relu_pool_proj
I0714 14:17:11.048030  3045 net.cpp:410] inception_4e/relu_pool_proj <- inception_4e/pool_proj
I0714 14:17:11.048039  3045 net.cpp:357] inception_4e/relu_pool_proj -> inception_4e/pool_proj (in-place)
I0714 14:17:11.048048  3045 net.cpp:120] Setting up inception_4e/relu_pool_proj
I0714 14:17:11.048054  3045 net.cpp:127] Top shape: 10 128 14 14 (250880)
I0714 14:17:11.048059  3045 layer_factory.hpp:74] Creating layer inception_4e/output
I0714 14:17:11.048066  3045 net.cpp:90] Creating Layer inception_4e/output
I0714 14:17:11.048073  3045 net.cpp:410] inception_4e/output <- inception_4e/1x1
I0714 14:17:11.048079  3045 net.cpp:410] inception_4e/output <- inception_4e/3x3
I0714 14:17:11.048084  3045 net.cpp:410] inception_4e/output <- inception_4e/5x5
I0714 14:17:11.048090  3045 net.cpp:410] inception_4e/output <- inception_4e/pool_proj
I0714 14:17:11.048097  3045 net.cpp:368] inception_4e/output -> inception_4e/output
I0714 14:17:11.048105  3045 net.cpp:120] Setting up inception_4e/output
I0714 14:17:11.048112  3045 net.cpp:127] Top shape: 10 832 14 14 (1630720)
I0714 14:17:11.048117  3045 layer_factory.hpp:74] Creating layer pool4/3x3_s2
I0714 14:17:11.048130  3045 net.cpp:90] Creating Layer pool4/3x3_s2
I0714 14:17:11.048136  3045 net.cpp:410] pool4/3x3_s2 <- inception_4e/output
I0714 14:17:11.048146  3045 net.cpp:368] pool4/3x3_s2 -> pool4/3x3_s2
I0714 14:17:11.048154  3045 net.cpp:120] Setting up pool4/3x3_s2
I0714 14:17:11.048162  3045 net.cpp:127] Top shape: 10 832 7 7 (407680)
I0714 14:17:11.048168  3045 layer_factory.hpp:74] Creating layer pool4/3x3_s2_pool4/3x3_s2_0_split
I0714 14:17:11.048176  3045 net.cpp:90] Creating Layer pool4/3x3_s2_pool4/3x3_s2_0_split
I0714 14:17:11.048183  3045 net.cpp:410] pool4/3x3_s2_pool4/3x3_s2_0_split <- pool4/3x3_s2
I0714 14:17:11.048190  3045 net.cpp:368] pool4/3x3_s2_pool4/3x3_s2_0_split -> pool4/3x3_s2_pool4/3x3_s2_0_split_0
I0714 14:17:11.048198  3045 net.cpp:368] pool4/3x3_s2_pool4/3x3_s2_0_split -> pool4/3x3_s2_pool4/3x3_s2_0_split_1
I0714 14:17:11.048207  3045 net.cpp:368] pool4/3x3_s2_pool4/3x3_s2_0_split -> pool4/3x3_s2_pool4/3x3_s2_0_split_2
I0714 14:17:11.048215  3045 net.cpp:368] pool4/3x3_s2_pool4/3x3_s2_0_split -> pool4/3x3_s2_pool4/3x3_s2_0_split_3
I0714 14:17:11.048225  3045 net.cpp:120] Setting up pool4/3x3_s2_pool4/3x3_s2_0_split
I0714 14:17:11.048233  3045 net.cpp:127] Top shape: 10 832 7 7 (407680)
I0714 14:17:11.048239  3045 net.cpp:127] Top shape: 10 832 7 7 (407680)
I0714 14:17:11.048245  3045 net.cpp:127] Top shape: 10 832 7 7 (407680)
I0714 14:17:11.048251  3045 net.cpp:127] Top shape: 10 832 7 7 (407680)
I0714 14:17:11.048256  3045 layer_factory.hpp:74] Creating layer inception_5a/1x1
I0714 14:17:11.048267  3045 net.cpp:90] Creating Layer inception_5a/1x1
I0714 14:17:11.048274  3045 net.cpp:410] inception_5a/1x1 <- pool4/3x3_s2_pool4/3x3_s2_0_split_0
I0714 14:17:11.048285  3045 net.cpp:368] inception_5a/1x1 -> inception_5a/1x1
I0714 14:17:11.048292  3045 net.cpp:120] Setting up inception_5a/1x1
I0714 14:17:11.050051  3045 net.cpp:127] Top shape: 10 256 7 7 (125440)
I0714 14:17:11.050065  3045 layer_factory.hpp:74] Creating layer inception_5a/relu_1x1
I0714 14:17:11.050073  3045 net.cpp:90] Creating Layer inception_5a/relu_1x1
I0714 14:17:11.050081  3045 net.cpp:410] inception_5a/relu_1x1 <- inception_5a/1x1
I0714 14:17:11.050087  3045 net.cpp:357] inception_5a/relu_1x1 -> inception_5a/1x1 (in-place)
I0714 14:17:11.050094  3045 net.cpp:120] Setting up inception_5a/relu_1x1
I0714 14:17:11.050101  3045 net.cpp:127] Top shape: 10 256 7 7 (125440)
I0714 14:17:11.050107  3045 layer_factory.hpp:74] Creating layer inception_5a/3x3_reduce
I0714 14:17:11.050117  3045 net.cpp:90] Creating Layer inception_5a/3x3_reduce
I0714 14:17:11.050123  3045 net.cpp:410] inception_5a/3x3_reduce <- pool4/3x3_s2_pool4/3x3_s2_0_split_1
I0714 14:17:11.050132  3045 net.cpp:368] inception_5a/3x3_reduce -> inception_5a/3x3_reduce
I0714 14:17:11.050139  3045 net.cpp:120] Setting up inception_5a/3x3_reduce
I0714 14:17:11.051242  3045 net.cpp:127] Top shape: 10 160 7 7 (78400)
I0714 14:17:11.051254  3045 layer_factory.hpp:74] Creating layer inception_5a/relu_3x3_reduce
I0714 14:17:11.051265  3045 net.cpp:90] Creating Layer inception_5a/relu_3x3_reduce
I0714 14:17:11.051271  3045 net.cpp:410] inception_5a/relu_3x3_reduce <- inception_5a/3x3_reduce
I0714 14:17:11.051278  3045 net.cpp:357] inception_5a/relu_3x3_reduce -> inception_5a/3x3_reduce (in-place)
I0714 14:17:11.051285  3045 net.cpp:120] Setting up inception_5a/relu_3x3_reduce
I0714 14:17:11.051292  3045 net.cpp:127] Top shape: 10 160 7 7 (78400)
I0714 14:17:11.051297  3045 layer_factory.hpp:74] Creating layer inception_5a/3x3
I0714 14:17:11.051306  3045 net.cpp:90] Creating Layer inception_5a/3x3
I0714 14:17:11.051311  3045 net.cpp:410] inception_5a/3x3 <- inception_5a/3x3_reduce
I0714 14:17:11.051321  3045 net.cpp:368] inception_5a/3x3 -> inception_5a/3x3
I0714 14:17:11.051331  3045 net.cpp:120] Setting up inception_5a/3x3
I0714 14:17:11.055265  3045 net.cpp:127] Top shape: 10 320 7 7 (156800)
I0714 14:17:11.055280  3045 layer_factory.hpp:74] Creating layer inception_5a/relu_3x3
I0714 14:17:11.055291  3045 net.cpp:90] Creating Layer inception_5a/relu_3x3
I0714 14:17:11.055305  3045 net.cpp:410] inception_5a/relu_3x3 <- inception_5a/3x3
I0714 14:17:11.055315  3045 net.cpp:357] inception_5a/relu_3x3 -> inception_5a/3x3 (in-place)
I0714 14:17:11.055322  3045 net.cpp:120] Setting up inception_5a/relu_3x3
I0714 14:17:11.055330  3045 net.cpp:127] Top shape: 10 320 7 7 (156800)
I0714 14:17:11.055335  3045 layer_factory.hpp:74] Creating layer inception_5a/5x5_reduce
I0714 14:17:11.055344  3045 net.cpp:90] Creating Layer inception_5a/5x5_reduce
I0714 14:17:11.055349  3045 net.cpp:410] inception_5a/5x5_reduce <- pool4/3x3_s2_pool4/3x3_s2_0_split_2
I0714 14:17:11.055361  3045 net.cpp:368] inception_5a/5x5_reduce -> inception_5a/5x5_reduce
I0714 14:17:11.055369  3045 net.cpp:120] Setting up inception_5a/5x5_reduce
I0714 14:17:11.055614  3045 net.cpp:127] Top shape: 10 32 7 7 (15680)
I0714 14:17:11.055625  3045 layer_factory.hpp:74] Creating layer inception_5a/relu_5x5_reduce
I0714 14:17:11.055635  3045 net.cpp:90] Creating Layer inception_5a/relu_5x5_reduce
I0714 14:17:11.055642  3045 net.cpp:410] inception_5a/relu_5x5_reduce <- inception_5a/5x5_reduce
I0714 14:17:11.055649  3045 net.cpp:357] inception_5a/relu_5x5_reduce -> inception_5a/5x5_reduce (in-place)
I0714 14:17:11.055656  3045 net.cpp:120] Setting up inception_5a/relu_5x5_reduce
I0714 14:17:11.055663  3045 net.cpp:127] Top shape: 10 32 7 7 (15680)
I0714 14:17:11.055670  3045 layer_factory.hpp:74] Creating layer inception_5a/5x5
I0714 14:17:11.055680  3045 net.cpp:90] Creating Layer inception_5a/5x5
I0714 14:17:11.055685  3045 net.cpp:410] inception_5a/5x5 <- inception_5a/5x5_reduce
I0714 14:17:11.055693  3045 net.cpp:368] inception_5a/5x5 -> inception_5a/5x5
I0714 14:17:11.055701  3045 net.cpp:120] Setting up inception_5a/5x5
I0714 14:17:11.056582  3045 net.cpp:127] Top shape: 10 128 7 7 (62720)
I0714 14:17:11.056596  3045 layer_factory.hpp:74] Creating layer inception_5a/relu_5x5
I0714 14:17:11.056604  3045 net.cpp:90] Creating Layer inception_5a/relu_5x5
I0714 14:17:11.056612  3045 net.cpp:410] inception_5a/relu_5x5 <- inception_5a/5x5
I0714 14:17:11.056620  3045 net.cpp:357] inception_5a/relu_5x5 -> inception_5a/5x5 (in-place)
I0714 14:17:11.056630  3045 net.cpp:120] Setting up inception_5a/relu_5x5
I0714 14:17:11.056638  3045 net.cpp:127] Top shape: 10 128 7 7 (62720)
I0714 14:17:11.056643  3045 layer_factory.hpp:74] Creating layer inception_5a/pool
I0714 14:17:11.056665  3045 net.cpp:90] Creating Layer inception_5a/pool
I0714 14:17:11.056671  3045 net.cpp:410] inception_5a/pool <- pool4/3x3_s2_pool4/3x3_s2_0_split_3
I0714 14:17:11.056679  3045 net.cpp:368] inception_5a/pool -> inception_5a/pool
I0714 14:17:11.056689  3045 net.cpp:120] Setting up inception_5a/pool
I0714 14:17:11.056697  3045 net.cpp:127] Top shape: 10 832 7 7 (407680)
I0714 14:17:11.056704  3045 layer_factory.hpp:74] Creating layer inception_5a/pool_proj
I0714 14:17:11.056713  3045 net.cpp:90] Creating Layer inception_5a/pool_proj
I0714 14:17:11.056718  3045 net.cpp:410] inception_5a/pool_proj <- inception_5a/pool
I0714 14:17:11.056730  3045 net.cpp:368] inception_5a/pool_proj -> inception_5a/pool_proj
I0714 14:17:11.056738  3045 net.cpp:120] Setting up inception_5a/pool_proj
I0714 14:17:11.057651  3045 net.cpp:127] Top shape: 10 128 7 7 (62720)
I0714 14:17:11.057663  3045 layer_factory.hpp:74] Creating layer inception_5a/relu_pool_proj
I0714 14:17:11.057672  3045 net.cpp:90] Creating Layer inception_5a/relu_pool_proj
I0714 14:17:11.057679  3045 net.cpp:410] inception_5a/relu_pool_proj <- inception_5a/pool_proj
I0714 14:17:11.057687  3045 net.cpp:357] inception_5a/relu_pool_proj -> inception_5a/pool_proj (in-place)
I0714 14:17:11.057694  3045 net.cpp:120] Setting up inception_5a/relu_pool_proj
I0714 14:17:11.057700  3045 net.cpp:127] Top shape: 10 128 7 7 (62720)
I0714 14:17:11.057705  3045 layer_factory.hpp:74] Creating layer inception_5a/output
I0714 14:17:11.057716  3045 net.cpp:90] Creating Layer inception_5a/output
I0714 14:17:11.057723  3045 net.cpp:410] inception_5a/output <- inception_5a/1x1
I0714 14:17:11.057729  3045 net.cpp:410] inception_5a/output <- inception_5a/3x3
I0714 14:17:11.057740  3045 net.cpp:410] inception_5a/output <- inception_5a/5x5
I0714 14:17:11.057746  3045 net.cpp:410] inception_5a/output <- inception_5a/pool_proj
I0714 14:17:11.057754  3045 net.cpp:368] inception_5a/output -> inception_5a/output
I0714 14:17:11.057762  3045 net.cpp:120] Setting up inception_5a/output
I0714 14:17:11.057770  3045 net.cpp:127] Top shape: 10 832 7 7 (407680)
I0714 14:17:11.057776  3045 layer_factory.hpp:74] Creating layer inception_5a/output_inception_5a/output_0_split
I0714 14:17:11.057783  3045 net.cpp:90] Creating Layer inception_5a/output_inception_5a/output_0_split
I0714 14:17:11.057788  3045 net.cpp:410] inception_5a/output_inception_5a/output_0_split <- inception_5a/output
I0714 14:17:11.057801  3045 net.cpp:368] inception_5a/output_inception_5a/output_0_split -> inception_5a/output_inception_5a/output_0_split_0
I0714 14:17:11.057809  3045 net.cpp:368] inception_5a/output_inception_5a/output_0_split -> inception_5a/output_inception_5a/output_0_split_1
I0714 14:17:11.057818  3045 net.cpp:368] inception_5a/output_inception_5a/output_0_split -> inception_5a/output_inception_5a/output_0_split_2
I0714 14:17:11.057826  3045 net.cpp:368] inception_5a/output_inception_5a/output_0_split -> inception_5a/output_inception_5a/output_0_split_3
I0714 14:17:11.057834  3045 net.cpp:120] Setting up inception_5a/output_inception_5a/output_0_split
I0714 14:17:11.057842  3045 net.cpp:127] Top shape: 10 832 7 7 (407680)
I0714 14:17:11.057848  3045 net.cpp:127] Top shape: 10 832 7 7 (407680)
I0714 14:17:11.057854  3045 net.cpp:127] Top shape: 10 832 7 7 (407680)
I0714 14:17:11.057860  3045 net.cpp:127] Top shape: 10 832 7 7 (407680)
I0714 14:17:11.057867  3045 layer_factory.hpp:74] Creating layer inception_5b/1x1
I0714 14:17:11.057878  3045 net.cpp:90] Creating Layer inception_5b/1x1
I0714 14:17:11.057883  3045 net.cpp:410] inception_5b/1x1 <- inception_5a/output_inception_5a/output_0_split_0
I0714 14:17:11.057893  3045 net.cpp:368] inception_5b/1x1 -> inception_5b/1x1
I0714 14:17:11.057903  3045 net.cpp:120] Setting up inception_5b/1x1
I0714 14:17:11.060637  3045 net.cpp:127] Top shape: 10 384 7 7 (188160)
I0714 14:17:11.060652  3045 layer_factory.hpp:74] Creating layer inception_5b/relu_1x1
I0714 14:17:11.060662  3045 net.cpp:90] Creating Layer inception_5b/relu_1x1
I0714 14:17:11.060667  3045 net.cpp:410] inception_5b/relu_1x1 <- inception_5b/1x1
I0714 14:17:11.060677  3045 net.cpp:357] inception_5b/relu_1x1 -> inception_5b/1x1 (in-place)
I0714 14:17:11.060684  3045 net.cpp:120] Setting up inception_5b/relu_1x1
I0714 14:17:11.060691  3045 net.cpp:127] Top shape: 10 384 7 7 (188160)
I0714 14:17:11.060696  3045 layer_factory.hpp:74] Creating layer inception_5b/3x3_reduce
I0714 14:17:11.060705  3045 net.cpp:90] Creating Layer inception_5b/3x3_reduce
I0714 14:17:11.060711  3045 net.cpp:410] inception_5b/3x3_reduce <- inception_5a/output_inception_5a/output_0_split_1
I0714 14:17:11.060721  3045 net.cpp:368] inception_5b/3x3_reduce -> inception_5b/3x3_reduce
I0714 14:17:11.060730  3045 net.cpp:120] Setting up inception_5b/3x3_reduce
I0714 14:17:11.062115  3045 net.cpp:127] Top shape: 10 192 7 7 (94080)
I0714 14:17:11.062129  3045 layer_factory.hpp:74] Creating layer inception_5b/relu_3x3_reduce
I0714 14:17:11.062136  3045 net.cpp:90] Creating Layer inception_5b/relu_3x3_reduce
I0714 14:17:11.062142  3045 net.cpp:410] inception_5b/relu_3x3_reduce <- inception_5b/3x3_reduce
I0714 14:17:11.062150  3045 net.cpp:357] inception_5b/relu_3x3_reduce -> inception_5b/3x3_reduce (in-place)
I0714 14:17:11.062156  3045 net.cpp:120] Setting up inception_5b/relu_3x3_reduce
I0714 14:17:11.062163  3045 net.cpp:127] Top shape: 10 192 7 7 (94080)
I0714 14:17:11.062170  3045 layer_factory.hpp:74] Creating layer inception_5b/3x3
I0714 14:17:11.062177  3045 net.cpp:90] Creating Layer inception_5b/3x3
I0714 14:17:11.062183  3045 net.cpp:410] inception_5b/3x3 <- inception_5b/3x3_reduce
I0714 14:17:11.062193  3045 net.cpp:368] inception_5b/3x3 -> inception_5b/3x3
I0714 14:17:11.062202  3045 net.cpp:120] Setting up inception_5b/3x3
I0714 14:17:11.067546  3045 net.cpp:127] Top shape: 10 384 7 7 (188160)
I0714 14:17:11.067559  3045 layer_factory.hpp:74] Creating layer inception_5b/relu_3x3
I0714 14:17:11.067571  3045 net.cpp:90] Creating Layer inception_5b/relu_3x3
I0714 14:17:11.067577  3045 net.cpp:410] inception_5b/relu_3x3 <- inception_5b/3x3
I0714 14:17:11.067585  3045 net.cpp:357] inception_5b/relu_3x3 -> inception_5b/3x3 (in-place)
I0714 14:17:11.067592  3045 net.cpp:120] Setting up inception_5b/relu_3x3
I0714 14:17:11.067600  3045 net.cpp:127] Top shape: 10 384 7 7 (188160)
I0714 14:17:11.067605  3045 layer_factory.hpp:74] Creating layer inception_5b/5x5_reduce
I0714 14:17:11.067616  3045 net.cpp:90] Creating Layer inception_5b/5x5_reduce
I0714 14:17:11.067622  3045 net.cpp:410] inception_5b/5x5_reduce <- inception_5a/output_inception_5a/output_0_split_2
I0714 14:17:11.067631  3045 net.cpp:368] inception_5b/5x5_reduce -> inception_5b/5x5_reduce
I0714 14:17:11.067639  3045 net.cpp:120] Setting up inception_5b/5x5_reduce
I0714 14:17:11.067997  3045 net.cpp:127] Top shape: 10 48 7 7 (23520)
I0714 14:17:11.068012  3045 layer_factory.hpp:74] Creating layer inception_5b/relu_5x5_reduce
I0714 14:17:11.068020  3045 net.cpp:90] Creating Layer inception_5b/relu_5x5_reduce
I0714 14:17:11.068027  3045 net.cpp:410] inception_5b/relu_5x5_reduce <- inception_5b/5x5_reduce
I0714 14:17:11.068037  3045 net.cpp:357] inception_5b/relu_5x5_reduce -> inception_5b/5x5_reduce (in-place)
I0714 14:17:11.068044  3045 net.cpp:120] Setting up inception_5b/relu_5x5_reduce
I0714 14:17:11.068052  3045 net.cpp:127] Top shape: 10 48 7 7 (23520)
I0714 14:17:11.068056  3045 layer_factory.hpp:74] Creating layer inception_5b/5x5
I0714 14:17:11.068065  3045 net.cpp:90] Creating Layer inception_5b/5x5
I0714 14:17:11.068071  3045 net.cpp:410] inception_5b/5x5 <- inception_5b/5x5_reduce
I0714 14:17:11.068079  3045 net.cpp:368] inception_5b/5x5 -> inception_5b/5x5
I0714 14:17:11.068087  3045 net.cpp:120] Setting up inception_5b/5x5
I0714 14:17:11.069412  3045 net.cpp:127] Top shape: 10 128 7 7 (62720)
I0714 14:17:11.069425  3045 layer_factory.hpp:74] Creating layer inception_5b/relu_5x5
I0714 14:17:11.069433  3045 net.cpp:90] Creating Layer inception_5b/relu_5x5
I0714 14:17:11.069439  3045 net.cpp:410] inception_5b/relu_5x5 <- inception_5b/5x5
I0714 14:17:11.069447  3045 net.cpp:357] inception_5b/relu_5x5 -> inception_5b/5x5 (in-place)
I0714 14:17:11.069454  3045 net.cpp:120] Setting up inception_5b/relu_5x5
I0714 14:17:11.069461  3045 net.cpp:127] Top shape: 10 128 7 7 (62720)
I0714 14:17:11.069466  3045 layer_factory.hpp:74] Creating layer inception_5b/pool
I0714 14:17:11.069474  3045 net.cpp:90] Creating Layer inception_5b/pool
I0714 14:17:11.069480  3045 net.cpp:410] inception_5b/pool <- inception_5a/output_inception_5a/output_0_split_3
I0714 14:17:11.069490  3045 net.cpp:368] inception_5b/pool -> inception_5b/pool
I0714 14:17:11.069499  3045 net.cpp:120] Setting up inception_5b/pool
I0714 14:17:11.069507  3045 net.cpp:127] Top shape: 10 832 7 7 (407680)
I0714 14:17:11.069514  3045 layer_factory.hpp:74] Creating layer inception_5b/pool_proj
I0714 14:17:11.069522  3045 net.cpp:90] Creating Layer inception_5b/pool_proj
I0714 14:17:11.069528  3045 net.cpp:410] inception_5b/pool_proj <- inception_5b/pool
I0714 14:17:11.069538  3045 net.cpp:368] inception_5b/pool_proj -> inception_5b/pool_proj
I0714 14:17:11.069547  3045 net.cpp:120] Setting up inception_5b/pool_proj
I0714 14:17:11.070477  3045 net.cpp:127] Top shape: 10 128 7 7 (62720)
I0714 14:17:11.070492  3045 layer_factory.hpp:74] Creating layer inception_5b/relu_pool_proj
I0714 14:17:11.070502  3045 net.cpp:90] Creating Layer inception_5b/relu_pool_proj
I0714 14:17:11.070508  3045 net.cpp:410] inception_5b/relu_pool_proj <- inception_5b/pool_proj
I0714 14:17:11.070514  3045 net.cpp:357] inception_5b/relu_pool_proj -> inception_5b/pool_proj (in-place)
I0714 14:17:11.070521  3045 net.cpp:120] Setting up inception_5b/relu_pool_proj
I0714 14:17:11.070528  3045 net.cpp:127] Top shape: 10 128 7 7 (62720)
I0714 14:17:11.070543  3045 layer_factory.hpp:74] Creating layer inception_5b/output
I0714 14:17:11.070552  3045 net.cpp:90] Creating Layer inception_5b/output
I0714 14:17:11.070559  3045 net.cpp:410] inception_5b/output <- inception_5b/1x1
I0714 14:17:11.070565  3045 net.cpp:410] inception_5b/output <- inception_5b/3x3
I0714 14:17:11.070571  3045 net.cpp:410] inception_5b/output <- inception_5b/5x5
I0714 14:17:11.070577  3045 net.cpp:410] inception_5b/output <- inception_5b/pool_proj
I0714 14:17:11.070585  3045 net.cpp:368] inception_5b/output -> inception_5b/output
I0714 14:17:11.070592  3045 net.cpp:120] Setting up inception_5b/output
I0714 14:17:11.070600  3045 net.cpp:127] Top shape: 10 1024 7 7 (501760)
I0714 14:17:11.070606  3045 layer_factory.hpp:74] Creating layer pool5/7x7_s1
I0714 14:17:11.070615  3045 net.cpp:90] Creating Layer pool5/7x7_s1
I0714 14:17:11.070619  3045 net.cpp:410] pool5/7x7_s1 <- inception_5b/output
I0714 14:17:11.070629  3045 net.cpp:368] pool5/7x7_s1 -> pool5/7x7_s1
I0714 14:17:11.070637  3045 net.cpp:120] Setting up pool5/7x7_s1
I0714 14:17:11.070647  3045 net.cpp:127] Top shape: 10 1024 1 1 (10240)
I0714 14:17:11.070652  3045 layer_factory.hpp:74] Creating layer pool5/drop_7x7_s1
I0714 14:17:11.070663  3045 net.cpp:90] Creating Layer pool5/drop_7x7_s1
I0714 14:17:11.070668  3045 net.cpp:410] pool5/drop_7x7_s1 <- pool5/7x7_s1
I0714 14:17:11.070678  3045 net.cpp:357] pool5/drop_7x7_s1 -> pool5/7x7_s1 (in-place)
I0714 14:17:11.070686  3045 net.cpp:120] Setting up pool5/drop_7x7_s1
I0714 14:17:11.070698  3045 net.cpp:127] Top shape: 10 1024 1 1 (10240)
I0714 14:17:11.070703  3045 layer_factory.hpp:74] Creating layer loss3/classifier
I0714 14:17:11.070715  3045 net.cpp:90] Creating Layer loss3/classifier
I0714 14:17:11.070720  3045 net.cpp:410] loss3/classifier <- pool5/7x7_s1
I0714 14:17:11.070729  3045 net.cpp:368] loss3/classifier -> loss3/classifier
I0714 14:17:11.070736  3045 net.cpp:120] Setting up loss3/classifier
I0714 14:17:11.079160  3045 net.cpp:127] Top shape: 10 1000 (10000)
I0714 14:17:11.079175  3045 layer_factory.hpp:74] Creating layer prob
I0714 14:17:11.079185  3045 net.cpp:90] Creating Layer prob
I0714 14:17:11.079191  3045 net.cpp:410] prob <- loss3/classifier
I0714 14:17:11.079202  3045 net.cpp:368] prob -> prob
I0714 14:17:11.079211  3045 net.cpp:120] Setting up prob
I0714 14:17:11.079229  3045 net.cpp:127] Top shape: 10 1000 (10000)
I0714 14:17:11.079236  3045 net.cpp:194] prob does not need backward computation.
I0714 14:17:11.079241  3045 net.cpp:194] loss3/classifier does not need backward computation.
I0714 14:17:11.079247  3045 net.cpp:194] pool5/drop_7x7_s1 does not need backward computation.
I0714 14:17:11.079252  3045 net.cpp:194] pool5/7x7_s1 does not need backward computation.
I0714 14:17:11.079257  3045 net.cpp:194] inception_5b/output does not need backward computation.
…
